nn100.pth (torch, 23732 bytes, 6 tensors)

0.weight f4 [64, 10]
0.034102984 0.15513375 -0.09589847 0.075548455 0.048443753 -0.056973223 0.0071152216 0.13162245
0.37890255 -0.2517435 -0.09124498 -0.30758092 0.1789843 0.23470718 -0.17163533 -0.2991802
0.019064179 -0.07498565 -0.19182634 -0.048594464 -0.123502925 -0.035360247 -0.09206259 0.44993708
-0.059435196 -0.17345762 -0.12280072 0.18358575 0.020880267 0.3587723 0.4298443 0.2670003
-0.07142716 0.267897 -0.04302797 0.4338483 0.26164824 0.026623031 -0.018305441 0.06580418
-0.0988048 -0.10496548 -0.01261305 -0.3197405 0.12837157 -0.06897966 -0.05836455 -0.086087264
0.24675106 -0.15112357 -0.083861925 0.06646082 0.003031511 -0.026486559 0.22856688 -0.17201649
-0.23918277 0.018085217 0.04350746 0.37574232 -0.5866222 0.1205004 -0.005274528 -0.022587504
-0.18365932 0.059981577 0.086781204 0.029435182 0.053830203 -0.06859969 -0.19681966 -0.044266712
0.29203406 0.024524482 -0.024087943 0.0071511148 -0.1269374 0.27096108 0.040471893 -0.70798445
-0.14031114 -0.08368612 0.13839123 0.2930929 -0.018637452 -0.0992448 -0.06607076 -0.17204157
0.18238503 0.054651517 -0.13340865 -0.3175047 -0.10643194 0.024776118 -0.1135134 0.0997052
-0.11249787 0.04098912 -0.040691268 -0.29202345 -0.1306949 -0.05325402 0.024036197 0.30728424
0.26207492 -0.23489028 0.27490693 0.08295828 0.06517331 0.0486158 0.44482392 0.10212264
0.1571863 -0.39839116 0.22741798 0.3384297 -0.11033431 -0.14948729 -0.0072514615 0.2683423
0.17726035 0.30754042 0.2234043 0.18128124 0.094830796 -0.20189705 -0.2814615 0.056676656
0.05508125 -0.1198009 -0.1899958 -0.08286664 -0.021675443 -0.045001794 0.0271708 -0.03143094
-0.356981 -0.08103108 -0.26418445 -0.027535487 0.17434697 -0.17001702 -0.14238358 0.11996339
-0.012466677 0.024650713 0.012320635 0.1880488 0.080185235 0.28009418 -0.047099594 0.054212213
0.36806712 -0.089757845 0.25221273 -0.045323156 0.16228412 0.1857598 -0.2155778 0.11793853
0.022421885 -0.016014235 0.03966404 0.083890155 0.43710098 -0.16715905 -0.12595585 0.22444387
-0.2536814 0.26054135 -0.18116577 -0.17460763 -0.18359384 0.3578439 -0.44854292 0.13341923
-0.19185351 0.013111507 0.5140439 -0.13653831 -0.0020843686 -0.2642495 -0.04888531 -0.21130751
-0.10097826 0.23571613 -0.0017873641 -0.26528168 0.22521643 -0.10840631 0.4217112 0.2845251
0.042796966 0.17928898 0.03657135 0.1526432 0.0055696163 0.22416994 0.23422255 -0.031830676
0.40771013 -0.33342826 -0.1442895 0.34359497 -0.12844951 0.14393899 0.3060675 0.1561802
-0.11714745 0.016523417 0.1286967 -0.1962302 0.032599993 0.30523267 -0.29729193 -0.045704555
-0.30434477 0.07490464 0.16318448 -0.2668509 -0.015356425 0.015122015 -0.120787874 0.09132371
0.015828922 0.016842578 -0.30421588 -0.11868303 0.061630473 -0.22278912 0.4801729 0.10648954
0.113334626 0.058609802 0.101020895 0.23106925 -0.02745687 -0.023565443 0.3666154 -0.07118127
-0.24117723 0.42863196 -0.054901604 -0.018713497 0.22952124 -0.15664963 -0.017698407 -0.13772206
-0.15625645 -0.51040566 0.16354693 -0.1033012 0.19887368 0.1275413 0.16613972 0.3489268
00000000: 92af 0b3d 62db 1e3e 6b66 c4bd 26b9 9a3d
00000010: f56c 463d c15c 69bd ce26 e93b 09c8 063e
00000020: 84ff c13e 86e4 80be a6de babd 3f7b 9dbe
00000030: a947 373e 1457 703e 2cc1 2fbe 262e 99be
00000040: 7b2c 9c3c 1492 99bd 206e 44be fd0a 47bd
00000050: 1aef fcbd e8d5 10bd 508b bcbd 275e e63e
00000060: 5272 73bd e09e 31be f27e fbbd e7fd 3b3e
00000070: 180d ab3c 01b1 b73e 8d14 dc3e 43b4 883e
00000080: 6748 92bd cc29 893e 193e 30bd 5d21 de3e
00000090: c2f6 853e 8b18 da3c 4bf5 95bc 58c4 863d
000000a0: 2c5a cabd 24f8 d6bd f7a6 4ebc 07b5 a3be
000000b0: d673 033e 3545 8dbd ab0f 6fbd 854e b0bd
000000c0: 4fac 7c3e 23c0 1abe cdbf abbd 9c1c 883d
000000d0: 51ac 463b 57fa d8bc 700d 6a3e 1725 30be
000000e0: 54ec 74be 7327 943c e134 323d 4c61 c03e
000000f0: df2c 16bf eac8 f63d f3d5 acbb 6e09 b9bc
00000100: 3011 3cbe 3eaf 753d 58ba b13d 0d22 f13c
00000110: 0f7d 5c3d ff7d 8cbd 188b 49be 0351 35bd
00000120: 7d85 953e 91e7 c83c 1454 c5bc e653 ea3b
00000130: e1fb 01be 69bb 8a3e dbc5 253d 783e 35bf
00000140: b9ad 0fbe a163 abbd 6eb6 0d3e 4610 963e
00000150: 92ad 98bc dc40 cbbd 1b50 87bd aa2b 30be
00000160: 24c3 3a3e 45da 5f3d 479c 08be fa8f a2be
00000170: fdf8 d9bd 49f7 ca3c b779 e8bd 3d32 cc3d
00000180: 4965 e6bd 35e4 273d e3ab 26bd 1984 95be
00000190: e2d4 05be e320 5abd 8fe7 c43c 5c54 9d3e
000001a0: af2e 863e 1487 70be 9ac0 8c3e 08e6 a93d
000001b0: 9679 853d 5c21 473d f6bf e33e ad25 d13d
000001c0: 72f5 203e edf9 cbbe 42e0 683e a846 ad3e
000001d0: f4f6 e1bd 3213 19be ab9d edbb 2964 893e
000001e0: bd83 353e f075 9d3e 19c4 643e caa1 393e
000001f0: a636 c23d 1abe 4ebe b91b 90be c825 683d
00000200: e09c 613d 2d5a f5bd 428e 42be fcb5 a9bd
00000210: b390 b1bc cd53 38bd 4c95 de3c bbbd 00bd
00000220: 37c6 b6be 9ff3 a5bd 2f43 87be 1a92 e1bc
00000230: 0388 323e f118 2ebe 00cd 11be 5eaf f53d
00000240: 0941 4cbc 4bf0 c93c 7ddc 493c dd8f 403e
00000250: 2838 a43d 8168 8f3e 81eb 40bd a00d 5e3d
00000260: 4b73 bc3e f6d2 b7bd 0722 813e c6a4 39bd
00000270: cf2d 263e d137 3e3e 6dc0 5cbe c289 f13d
00000280: 1aae b73c 4930 83bc c376 223d 9ace ab3d
00000290: b3cb df3e be2b 2bbe 92fa 00be 9dd4 653e
000002a0: 87e2 81be ad65 853e 8583 39be 58cc 32be
000002b0: 0600 3cbe 5137 b73e 6ba7 e5be 0d9f 083e
000002c0: 3f75 44be a5d1 563c 6298 033f b3d0 0bbe
000002d0: e799 08bb b64b 87be f63b 48bd ff60 58be
000002e0: b1cd cebd 925f 713e fd45 eaba 00d3 87be
000002f0: 239f 663e 2104 debd 88ea d73e 46ad 913e
00000300: df4b 2f3d 8897 373e d7cb 153d 804e 1c3e
00000310: 5481 b63b ce8c 653e 09d8 6f3e e260 02bd
00000320: 62bf d03e 1cb7 aabe a0c0 13be aeeb af3e
00000330: 4588 03be be64 133e e1b4 9c3e b4ed 1f3e
00000340: 01eb efbd 1e5c 873c 11c9 033e 92f0 48be
00000350: 9287 053d 7547 9c3e a636 98be b334 3bbd
00000360: 14d3 9bbe 9b67 993d d519 273e aea0 88be
00000370: 8499 7bbc 54c2 773c a25f f7bd ed07 bb3d
00000380: a8ab 813c 72f9 893c 2fc2 9bbe 1710 f3bd
00000390: 3c70 7c3d d522 64be 39d9 f53e 3017 da3d
000003a0: fc1b e83d d510 703d 0be4 ce3d 6b9d 6c3e
000003b0: 3bed e0bc 510c c1bc 04b5 bb3e 7cc7 91bd
000003c0: 2af7 76be a675 db3e 81e0 60bd 0c4d 99bc
000003d0: 9e07 6b3e c368 20be 40fc 90bc 0307 0dbe
000003e0: b101 20be f2a9 02bf d978 273e 948f d3bd
000003f0: 8ba5 4b3e 309a 023e 8820 2a3e 89a6 b23e

0.bias f4 [64]
-0.5138509 -0.3330415 0.6359395 -0.28181475 0.21454445 0.36002436 -0.31404617 -0.3610559
0.44266784 -0.025982063 0.49801397 0.102053486 -0.19501017 0.5933081 0.41319585 -0.22553809
0.47645935 -0.018549304 -0.45470858 -0.15484864 0.38579908 0.25985494 0.4651857 0.32065004
-0.16674355 -0.15545857 0.62043834 -0.04723787 0.49718234 0.00038416212 -0.07311038 0.57195157
-0.13830438 -0.4393506 -0.010850012 -0.09237039 -0.44240928 0.3081038 -0.26248032 0.024048155
0.014395756 0.801221 0.16530721 -0.4361378 -0.34335586 0.5652448 -0.5636677 -0.32787257
0.22216865 -0.41302714 -0.5378085 0.56324947 -0.09003531 0.2352315 0.46264634 0.4267796
-0.33824602 -0.61785555 -0.042531006 0.711304 0.22833806 0.5645897 0.05265339 -0.3567733
00000000: bc8b 03bf 6a84 aabe eecc 223f 064a 90be
00000010: 8ab1 5b3e 1d55 b83e a9ca a0be 52dc b8be
00000020: 5ca5 e23e 56d8 d4bc b0fb fe3e 6b01 d13d
00000030: bfb0 47be 0ae3 173f 688e d33e 75f3 66be
00000040: 7bf2 f33e b6f4 97bc 90cf e8be a490 1ebe
00000050: 7587 c53e b50b 853e d22c ee3e 3e2c a43e
00000060: d2be 2abe 8830 1fbe 0cd5 1e3f 7f7c 41bd
00000070: af8e fe3e 5e69 c939 e5ba 95bd 6b6b 123f
00000080: aa9f 0dbe 90f2 e0be 40c4 31bc b02c bdbd
00000090: 7883 e2be c8bf 9d3e d263 86be a300 c53c
000000a0: 2ddc 6b3c d21c 4d3f 4b46 293e 744d dfbe
000000b0: 57cc afbe e2b3 103f 874c 10bf eade a7be
000000c0: 2e80 633e 4b78 d3be d1ad 09bf 1e31 103f
000000d0: 6f64 b8bd 87e0 703e fbdf ec3e db82 da3e
000000e0: 952e adbe c82b 1ebf fe34 2ebd 0518 363f
000000f0: 74d1 693e f388 103f 15ab 573d fdaa b6be

2.weight f4 [64, 64]
-0.010838038 -0.048329953 0.0183273 0.2128313 -0.0077452175 -0.08790816 -0.14211665 0.039155107
-0.06382298 -0.05470392 0.09015506 0.1365138 -0.08824315 0.016994564 0.14670111 0.030647788
-0.08161094 0.04882777 -0.048934385 -0.0080767255 0.07169302 -0.12517186 -0.016327873 0.108640805
-0.110172175 0.10742206 -0.07414886 -0.0019815478 0.20279366 0.030925626 -0.11143009 -0.050772037
-0.12009222 -0.070046686 -0.021465031 -0.04953098 0.01097376 -0.017522905 0.076888554 -0.17467311
-0.07525454 -0.10703977 0.12404758 0.027054343 0.07191349 0.058565967 0.21706414 -0.12310477
-0.05426099 -0.100992024 -0.22126585 -0.088243 0.05773005 -0.1280741 -0.11813869 0.14203726
-0.05704802 -0.018049793 0.016601875 -0.13619287 0.035765104 -0.0005211912 0.025850812 -0.01585709
0.11328128 0.22702308 0.059632927 0.056722764 -0.08814346 0.21737899 -0.19897099 -0.016836373
0.06654266 -0.10073873 0.030620385 0.024608867 0.040861003 -0.014487146 0.065447345 0.19318567
0.09097472 -0.080422714 0.02861008 0.051687498 -0.20864417 -0.04086093 0.03221824 0.008663076
0.12916477 0.020424 0.058277965 -0.044076726 -0.060549326 0.12052592 0.013547066 -0.13749486
0.08348693 0.1795644 -0.081872314 0.09352478 0.19915655 -0.1759007 0.19952267 0.16062723
-0.14842357 0.12715665 0.0028805512 0.1213648 -0.055650186 0.01395705 0.15042102 -0.33844647
0.01681876 -0.02345666 0.27838948 0.00043874662 0.007407255 -0.04545852 0.0642838 -0.09875131
0.2569717 -0.019012757 -0.13145418 -0.047287118 -0.15669006 -0.19547606 -0.06224041 0.029466638
-0.10457772 -0.105329014 -0.0928024 0.17696695 0.10946818 -0.17424835 -0.24201535 -0.028210083
-0.15718617 -0.0029957495 -0.007403715 0.3059258 -0.15904886 -0.013503324 -0.015351053 -0.0036041252
-0.13110793 -0.014882869 -0.010277838 0.10262573 0.110849366 -0.0311884 -0.031242438 0.077309
0.015074887 0.05471447 0.041282687 -0.040422067 0.026243951 0.1489566 0.15880208 -0.18766911
-0.06647614 -0.057858616 -0.029472029 -0.08969212 0.2840614 -0.04109245 -0.07117582 0.018294571
0.12828746 -0.19085665 0.07548094 -0.014242761 0.26321834 -0.06176843 0.020749426 0.050857592
-0.006267989 0.043206114 -0.032396432 -0.022225326 0.03926245 0.13072525 -0.11924356 0.18956108
-0.13143727 0.078210905 -0.088899925 0.016526036 0.06484086 -0.18379605 0.037138246 0.17716534
-0.10441798 -0.33389974 0.15873758 -0.18777166 -0.0211747 -0.009829515 -0.20402496 -0.015241817
0.0838969 -0.108607486 -0.012732252 0.030097898 -0.15097895 0.18595363 0.10686424 -0.109661646
-0.01862684 -0.21750773 -0.2665286 -0.0219797 0.05995038 -0.06980774 0.19044542 -0.040562395
-0.21446027 -0.10835588 0.08463779 -0.07479572 0.09704662 0.115048386 -0.080387376 0.08774167
-0.04467442 -0.109190404 0.0026979551 -0.101407625 -0.15919839 0.06214114 -0.11610133 -0.06575254
0.028664503 0.25645766 -0.15346475 -0.20237146 -0.14440751 -0.003960184 -0.016986992 -0.036205996
0.012635322 -0.005501812 -0.14161727 0.13170172 -0.10527797 -0.08288939 0.17046218 0.08329836
-0.18719344 -0.15810882 -0.074545845 0.09733593 -0.011541332 0.15949348 -0.02939497 -0.23258656
00000000: 0792 31bc a1f5 45bd 2223 963c 73f0 593e
00000010: 98cb fdbb 3209 b4bd 0787 11be 1b61 203d
00000020: 9fb5 82bd 3811 60bd 37a3 b83d 46ca 0b3e
00000030: d3b8 b4bd 2f38 8b3c d138 163e 1211 fb3c
00000040: a323 a7bd a1ff 473d 6c6f 48bd 3e54 04bc
00000050: cad3 923d 0d2d 00be 08c2 85bc 127f de3d
00000060: f3a1 e1bd 1900 dc3d 5cdb 97bd dbdc 01bb
00000070: 24a9 4f3e bd57 fd3c 7635 e4bd 57f6 4fbd
00000080: e9f2 f5bd a374 8fbd 6fd7 afbc ffe0 4abd
00000090: 49cb 333c 328c 8fbc bf77 9d3d 82dd 32be
000000a0: 0d1f 9abd ab37 dbbd a80c fe3d 12a1 dd3c
000000b0: 6147 933d dee2 6f3d 1046 5e3e 5b1e fcbd
000000c0: c640 5ebd e8d4 cebd 8493 62be bfb8 b4bd
000000d0: 5876 6c3d db25 03be b3f2 f1bd 3772 113e
000000e0: 2fab 69bd 29dd 93bc a800 883c 2576 0bbe
000000f0: 6e7e 123d 8da0 08ba 15c5 d33c bae6 81bc
00000100: 0400 e83d bd78 683e a841 743d 2156 683d
00000110: 8f84 b4bd 9998 5e3e 0dbf 4bbe 6fec 89bc
00000120: 8547 883d 1b50 cebd 9ad7 fa3c 8998 c93c
00000130: de5d 273d 7f5b 6dbc 4209 863d 77d2 453e
00000140: f450 ba3d aab4 a4bd b05f ea3c 45b6 533d
00000150: d1a6 55be ca5d 27bd 46f7 033d 93ef 0d3c
00000160: c543 043e 3c50 a73c e0b4 6e3d cc89 34bd
00000170: 9202 78bd 4bd6 f63d 83f4 5d3c 74cb 0cbe
00000180: 32fb aa3d bbdf 373e acac a7bd eb89 bf3d
00000190: b2ef 4b3e 501f 34be ac4f 4c3e 777b 243e
000001a0: 59fc 17be 5a35 023e a1c7 3c3b 1c8e f83d
000001b0: 73f1 63bd 1cac 643c f807 1a3e db48 adbe
000001c0: 7fc7 893c 2e28 c0bc 1189 8e3e 9307 e639
000001d0: 8fb8 f23b b732 3abd 3aa7 833d 203e cabd
000001e0: cb91 833e a4c0 9bbc ed9b 06be 23b0 41bd
000001f0: 5c73 20be e02a 48be cdef 7ebd 0564 f13c
00000200: d82c d6bd bdb6 d7bd 2f0f bebd d336 353e
00000210: da30 e03d 296e 32be dfd2 77be d518 e7bc
00000220: 69f5 20be 5654 44bb dd9a f2bb 4ea2 9c3e
00000230: b4dd 22be 0c3d 5dbc fc82 7bbc 3033 6cbb
00000240: 2841 06be 47d7 73bc 6164 28bc 702d d23d
00000250: fe04 e33d d17e ffbc 24f0 ffbc 2e54 9e3d
00000260: a9fc 763c 481c 603d 0918 293d 9c91 25bd
00000270: 8efd d63c 1488 183e 039d 223e 552c 40be
00000280: a424 88bd 28fd 6cbd 536f f1bc 81b0 b7bd
00000290: 7f70 913e 8f50 28bd a1c4 91bd 7fde 953c
000002a0: ca5d 033e ed6f 43be c095 9a3d 785a 69bc
000002b0: 8ec4 863e e500 7dbd b3fa a93c 0d50 503d
000002c0: b463 cdbb e5f8 303d 1fb2 04bd e311 b6bc
000002d0: aad1 203d d7dc 053e f835 f4bd 4d1c 423e
000002e0: 7e97 06be 0a2d a03d 2a11 b6bd 9c61 873c
000002f0: 49cb 843d 0835 3cbe 461e 183d d56a 353e
00000300: 18d9 d5bd e8f4 aabe 1b8c 223e 3747 40be
00000310: 9176 adbc f90b 21bc ebeb 50be d0b8 79bc
00000320: 23d2 ab3d 9a6d debd ef9a 50bc de8f f63c
00000330: 3a9a 1abe a16a 3e3e a3db da3d 4996 e0bd
00000340: 5197 98bc 59ba 5ebe 7076 88be c60e b4bc
00000350: 888e 753d 5cf7 8ebd 2004 433e c124 26bd
00000360: 799b 5bbe b0e9 ddbd 9456 ad3d 802e 99bd
00000370: 61c0 c63d 7d9e eb3d 23a2 a4bd e8b1 b33d
00000380: 86fc 36bd 389f dfbd 2dd0 303b cdae cfbd
00000390: e704 23be b587 7e3d 89c6 edbd 45a9 86bd
000003a0: d2d1 ea3c 6b4e 833e dd25 1dbe 773a 4fbe
000003b0: 90df 13be 6ec4 81bb 4e28 8bbc bd4c 14bd
000003c0: 6204 4f3c 8b48 b4bb 1e04 11be d1dc 063e
000003d0: fa9b d7bd eac1 a9bd a38d 2e3e 5598 aa3d
000003e0: a3af 3fbe 47e7 21be 7eab 98bd 0f58 c73d
000003f0: db17 3dbc 4252 233e b8cd f0bc 2c2b 6ebe

2.bias f4 [64]
0.07967917 -0.0540956 0.073765084 0.39890292 0.25840572 0.16374311 -0.0015911775 0.21855643
-0.026567576 0.22541448 -0.0982797 0.39390343 -0.10391641 -0.11596819 0.1333641 0.35227728
0.044991568 0.22343726 -0.086287566 0.14477377 0.3132618 0.26537377 0.23270512 0.3468854
0.281222 0.009246576 0.056276985 0.2274849 0.05116533 -0.037177287 -0.028806573 -0.042216856
0.34260985 0.06372469 0.04317623 -0.15642717 -0.06947295 -0.026365707 -0.01784375 -0.058149777
0.062512115 0.3632675 -0.022670493 -0.19086437 0.011136369 -0.18577503 0.03638183 -0.027956095
0.030806925 0.066168055 -0.19354397 0.20783563 -0.22664182 0.038946994 0.2432877 -0.06441055
-0.03345422 0.38960895 0.53377527 -0.02266024 0.4252097 0.11570001 0.07974821 0.40132305
00000000: d52e a33d 5993 5dbd 2612 973d 013d cc3e
00000010: c14d 843e 46ac 273e 0f8f d0ba 42cd 5f3e
00000020: 3fa4 d9bc 0ed3 663e de46 c9bd b6ad c93e
00000030: 20d2 d4bd bb80 edbd 9990 083e b05d b43e
00000040: 1449 383d bdcc 643e 89b7 b0bd 933f 143e
00000050: da63 a03e 12df 873e 404a 6e3e f79a b13e
00000060: 54fc 8f3e f37e 173c b282 663d cdf1 683e
00000070: bd92 513d 3647 18bd c3fb ebbc 95eb 2cbd
00000080: 8f6a af3e 1782 823d 8fd9 303d 722e 20be
00000090: d647 8ebd e5fc d7bc 0e2d 92bc 762e 6ebd
000000a0: 5a06 803d 33fe b93e 78b7 b9bc f371 43be
000000b0: 5175 363c cf3b 3ebe 1d05 153d 2e04 e5bc
000000c0: ce5e fc3c 1e83 873d 6430 46be ddd2 543e
000000d0: cb14 68be e286 1f3d 6920 793e aee9 83bd
000000e0: 4b07 09bd d37a c73e 7fa5 083f f8a1 b9bc
000000f0: 16b5 d93e 20f4 ec3d 0853 a33d 377a cd3e

4.weight f4 [8, 64]
0.0676776 0.17206071 -0.11659143 0.20119432 0.21608727 0.14386538 -0.00015737176 0.067007855
-0.053474095 0.12962548 -0.0015105464 0.020005923 -0.19735879 0.05055165 0.11052329 0.19457488
-0.026463853 0.054998487 0.05791751 0.10990052 -0.022523722 0.17642398 0.20560259 0.25830737
0.19529079 0.17353316 0.1384039 0.04480204 -0.09861936 -0.057958465 -0.0066703036 0.022595322
0.093846045 -0.077908196 0.14300154 0.00420188 0.007408609 0.00034413594 -0.18164748 -0.04951276
-0.017849468 0.09188669 -0.013668457 -0.02151676 0.11447782 -0.3311331 -0.1460999 0.022332067
0.0870257 -0.000456513 -0.15321705 0.05127375 -0.14689346 0.012806187 0.18401319 0.050198723
0.08437086 0.052699707 0.071006835 -0.14048715 0.17853862 -0.10034754 -0.03489637 0.11794009
0.03203454 0.055725142 -0.1418606 -0.051272746 0.0014448186 -0.09587473 0.0021315557 -0.05671016
-0.005868301 0.05526487 -0.08118139 -0.20893867 -0.061659947 -0.119004115 0.13425766 -0.024859559
0.057065215 0.13314646 0.2244233 0.06960928 -0.116384335 0.0715514 0.16185205 0.24685737
0.084226385 -0.13136116 0.25815096 -0.21211351 -0.26931116 0.054873776 0.020583762 -0.010725828
-0.14300826 -0.060373656 0.22164343 -0.04306713 0.017138062 0.017643986 0.1469994 0.1223592
-0.023866791 0.10698645 -0.03852578 -0.29106417 0.09395281 -0.24266067 0.10956635 -0.0054783626
0.079492114 0.0024099534 0.1289174 -0.11622838 -0.065031685 0.0061225924 -0.00021220034 0.035242777
0.07830685 -0.09098065 0.064185806 -0.12046136 -0.018138716 -0.34232503 0.11483304 -0.07186562
0.06660174 0.09189064 -0.124959916 -0.086050875 0.108746216 0.070754424 -6.331554e-07 -0.055989373
0.17380214 -0.09206002 -0.08163605 -0.01535751 0.05511107 0.20177795 -0.0030866982 -0.10219158
0.0042807325 0.050292462 -0.084382996 -0.027595896 0.011300931 -0.04244232 0.060228113 -0.07181911
0.07557442 0.29706374 -0.06642603 0.1624683 0.04122701 0.06532628 -0.020457946 0.06554055
-0.15953802 -0.025996024 -0.0027544103 -0.055002943 0.017483205 -0.013800796 -0.051463295 -0.2731692
-0.056312367 0.028237859 0.016181659 0.25183913 0.017059669 -0.0029913534 -0.091804445 0.007378257
0.08742527 0.09260321 -0.2093774 0.13242993 0.07886785 -0.14449641 0.09094387 0.033357743
-0.11662951 0.088785306 -0.14384894 -0.014491661 0.040154338 0.1166925 -0.22889711 -0.032213025
0.06653717 -0.04175108 0.0948013 0.10494581 -0.01978194 0.06829162 0.004272725 0.19325136
-0.06722516 0.09009409 0.011939524 0.23851041 -0.13051397 -0.015586078 0.07906173 0.043169767
0.03481047 0.07160258 -0.031774946 0.1265041 0.19734438 -0.020262493 0.14343965 0.056931023
0.09153864 -0.026227122 -0.0076892353 0.13620897 0.14060128 0.09683139 -0.012377905 -0.07985613
0.08983965 -0.017875 -0.043235708 0.012054519 -0.04179649 -0.0008314093 -0.30192223 0.10140911
-0.0013054432 0.041614417 0.021235686 -0.013262297 -0.03947028 -0.116774105 -0.10662684 0.025870895
-0.012246134 0.07662086 -0.012615561 0.10308084 -0.08959444 0.00057728327 0.16361816 -0.03656824
-0.033568237 0.24512891 0.18125412 -0.03184844 0.19559011 0.1568359 0.060963467 0.17219979
00000000: 8e9a 8a3d af30 303e 7dc7 eebd e205 4e3e
00000010: fb45 5d3e 7251 133e 2904 25b9 6a3b 893d
00000020: a707 5bbd 8bbc 043e 87fd c5ba 76e3 a33c
00000030: 6c18 4abe 3f0f 4f3d 095a e23d a33e 473e
00000040: b9ca d8bc 1846 613d e93a 6d3d 8613 e13d
00000050: ab83 b8bc 7da8 343e 7c89 523e dd40 843e
00000060: 4ffa 473e adb2 313e c1b9 0d3e 5882 373d
00000070: f2f8 c9bd db65 6dbd 9092 dabb d319 b93c
00000080: 5b32 c03d 558e 9fbd ff6e 123e edaf 893b
00000090: ebc3 f23b 256d b439 cc01 3abe e4cd 4abd
000000a0: 0c39 92bc 172f bc3d aaf1 5fbc eb43 b0bc
000000b0: 5973 ea3d 478a a9be 369b 15be bdf1 b63c
000000c0: 883a b23d 2358 efb9 eee4 1cbe 6c04 523d
000000d0: 3d6b 16be 0bd1 513c f46d 3c3e 2d9d 4d3d
000000e0: a1ca ac3d a6db 573d 086c 913d dddb 0fbe
000000f0: d4d2 363e 0383 cdbd 7fef 0ebd 938a f13d
00000100: a636 033d 0c40 643d e843 11be 5f03 52bd
00000110: 1160 bd3a f859 c4bd 92b1 0b3b ea48 68bd
00000120: e04a c0bb 6b5d 623d 6e42 a6bd 05f4 55be
00000130: 248f 7cbd 6eb8 f3bd d77a 093e 46a6 cbbc
00000140: 37bd 693d 8c57 083e 39cf 653e 4f8f 8e3d
00000150: e95a eebd 8a89 923d 8bbc 253e 2ec8 7c3e
00000160: e27e ac3d 8a83 06be 5d2c 843e 4934 59be
00000170: 27e3 89be 53c3 603d 479f a83c 62bb 2fbc
00000180: c270 12be 5e4a 77bd 7ff6 623e 2967 30bd
00000190: 1f65 8c3c 1f8a 903c 0387 163e 7697 fa3d
000001a0: 4a84 c3bc b61b db3d 35cd 1dbd 5d06 95be
000001b0: 556a c03d 0a7c 78be 5364 e03d d683 b3bb
000001c0: c3cc a23d 4ff0 1d3b ec02 043e 2509 eebd
000001d0: 552f 85bd 07a0 c83b 1882 5eb9 bb5a 103d
000001e0: 575f a03d 1054 babd d973 833d 72b4 f6bd
000001f0: a597 94bc 3a45 afbe 962d eb3d 482e 93bd
00000200: 7e66 883d 2931 bc3d fcea ffbd 713b b0bd
00000210: 56b6 de3d b2e7 903d 1cf6 29b5 1d55 65bd
00000220: 30f9 313e f789 bcbd cd30 a7bd 119e 7bbc
00000230: 25bc 613d e19e 4e3e 344a 4abb d249 d1bd
00000240: 6345 8c3b 78ff 4d3d fed0 acbd ca10 e2bc
00000250: 8a27 393c 00d8 2dbd c1b1 763d e615 93bd
00000260: c3c6 9a3d bd18 983e 5f0a 88bd 175e 263e
00000270: a7dd 283d c9c9 853d 6c97 a7bc 203a 863d
00000280: ef5d 23be 9df5 d4bc 5683 34bb c44a 61bd
00000290: f038 8f3c bc1c 62bc 2dcb 52bd d5dc 8bbe
000002a0: cca7 66bd 1553 e73c 668f 843c 0ff1 803e
000002b0: b8c0 8b3c 950a 44bb f803 bcbd 4ec5 f13b
000002c0: 050c b33d c0a6 bd3d 0767 56be b69b 073e
000002d0: 7885 a13d def6 13be c840 ba3d 21a2 083d
000002e0: 74db eebd 12d5 b53d 234d 13be 6f6e 6dbc
000002f0: e078 243d 7afc ee3d 0164 6abe cef1 03bd
00000300: a444 883d 2e03 2bbd 2f27 c23d d4ed d63d
00000310: bc0d a2bc 7adc 8b3d 3702 8c3b afe3 453e
00000320: 58ad 89bd 4083 b83d fe9d 433c 133c 743e
00000330: 74a5 05be c05c 7fbc 1eeb a13d c8d2 303d
00000340: 6c95 0e3d 60a4 923d 7226 02bd 4a8a 013e
00000350: a514 4a3e 87fd a5bc d8e1 123e 8130 693d
00000360: 9c78 bb3d 43da d6bc fbf5 fbbb 5d7a 0b3e
00000370: c8f9 0f3e 894f c63d b2cc 4abc 9c8b a3bd
00000380: dafd b73d 986e 92bc ed17 31bd 5180 453c
00000390: cc32 2bbd eff2 59ba 8d95 9abe 94af cf3d
000003a0: 681b abba e173 2a3d 76f6 ad3c 1b4a 59bc
000003b0: 97ab 21bd 4327 efbd 2c5f dabd 33ef d33c
000003c0: 02a4 48bc 66eb 9c3d 7fb1 4ebc 0c1c d33d
000003d0: 4a7d b7bd d354 173a 858b 273e 94c8 15bd
000003e0: d97e 09bd 1303 7b3e ae9a 393e 8373 02bd
000003f0: c648 483e 9799 203e d4b4 793d 2455 303e

4.bias f4 [8]
0.36213803 0.011871476 0.048675235 0.39828447 0.021640548 -0.03963755 -0.050095715 0.1767231
00000000: 286a b93e 9480 423c af5f 473d f1eb cb3e
00000010: 8547 b13c fc5a 22bd 2a31 4dbd e6f6 343e
