nn1000.pth (torch, 23742 bytes, 6 tensors)

0.weight f4 [64, 10]
-0.00029946648 0.30515516 -0.04699612 0.016976302 0.47907072 -0.12801415 -0.027332127 -0.09627497
0.15023808 0.092156604 -0.098219454 0.103790306 0.03944785 -0.2593991 0.057447404 -0.080879405
0.00413658 -0.11405997 -0.030983927 0.009830996 0.38176093 -0.1490701 -0.017358774 0.31579202
0.08308496 0.05131987 0.38527313 -0.02927989 -0.089873366 0.11031382 -0.11260245 -0.14150366
-0.31659874 0.02975599 0.028186545 0.1563692 0.036460523 -0.09514159 -0.033130985 0.14971069
0.08422577 0.26395053 -0.0002132539 -0.22862935 0.26422447 -0.17098461 0.055374235 -0.18445951
-0.008796116 0.061988983 -0.12434456 0.19839695 0.09640969 0.05948799 0.12599002 -0.24562825
0.36709687 0.04537872 -0.06682634 -0.02256493 0.0022940403 -0.13073817 0.040589824 -0.11989861
-0.30720407 -0.20839797 0.15691094 -0.21843034 -0.0011217966 -0.023621114 -0.08626015 -0.12300362
-0.03489509 -0.08017294 -0.44019532 -0.25970772 0.12421808 -0.06791623 0.13316157 -0.16375913
-0.17567223 0.0018577771 -0.2436007 0.2382765 0.019749055 0.30448815 -0.044348985 -0.20571467
-0.07399143 0.045339126 0.46986228 0.040706266 -0.08576729 -0.2775729 0.046179824 0.48755893
-0.07251617 -0.015587637 -0.23806494 -0.15276517 -0.04756603 -0.0070797973 -0.022045078 -0.02583556
-0.026115043 -0.045568127 0.04507447 -0.028191641 0.2737242 0.07838047 0.023248477 0.15028614
0.12376269 0.037998747 0.02864146 -0.1964477 -0.10138837 0.05756959 0.3091177 -0.10707937
0.07643154 0.07900018 0.029888235 0.033832077 -0.014435384 -0.2126464 -0.114489116 -0.12438221
-0.15963125 -0.10104495 0.050144784 -0.08884315 -0.12982777 -0.29311824 -0.08871054 -0.123638906
0.10586815 -0.06974506 -0.146675 0.10900714 0.17429951 -0.028324168 -0.056829147 0.09424309
-0.16189107 0.26941925 -0.080607414 0.12738441 0.05377104 -0.009919355 0.058367725 0.13853489
0.043440927 0.23543923 0.1366416 -0.2195857 -0.22790925 -0.083392195 0.16253139 0.0535838
0.14026372 -0.12412088 0.11341333 0.2039511 -0.15932038 0.056033667 -0.058907874 -0.0681799
-0.039875075 -0.116546795 -0.17972417 0.2179771 0.27701297 -0.15689231 -0.07606401 0.041394453
0.014899859 0.16466697 -0.031103797 -0.13323554 -0.15604752 0.13355634 0.01921992 -0.057439618
0.120432094 0.08814184 0.04433211 0.0209368 0.18312371 -0.20906575 0.19729996 -0.30343136
-0.29979762 -0.0005063073 -0.053812776 0.07284858 -0.07974966 -0.05068549 0.03652079 -0.048923783
0.2918315 -0.3487228 -0.006257663 -0.015734946 -0.15109839 0.2617784 -0.111974865 -0.0030378797
0.23853739 0.13225149 0.14611194 0.017086713 -0.088437065 0.25308895 -0.06943663 -0.0031251067
-0.086642794 0.18604274 -0.22676298 0.05485319 0.047437012 -0.16366494 -0.07921542 0.0065391203
-0.22209623 -0.1920498 0.3230505 0.02249562 0.016176699 0.0006765472 -0.44463342 0.1109172
-0.012266245 0.054623082 -0.36738917 -0.36866328 0.14875151 0.039470028 -0.12573753 -0.13417909
-0.1240326 0.2647349 0.037584614 0.12756285 0.012324466 0.08065532 0.17153677 -0.12906559
0.1441898 0.08615872 -0.14672013 -0.019453835 -0.15542617 0.19311267 -0.18523546 -0.019195693
00000000: b601 9db9 4c3d 9c3e 017f 40bd e311 8b3c
00000010: c248 f53e 2416 03be a0e7 dfbc d02b c5bd
00000020: 03d8 193e 9abc bc3d 4827 c9bd 0390 d43d
00000030: 1294 213d f5cf 84be f84d 6b3d 1aa4 a5bd
00000040: 268c 873b 4698 e9bd 01d2 fdbc 3012 213c
00000050: 2b76 c33e d5a5 18be fd33 8ebc 7eaf a13e
00000060: 7328 aa3d c934 523d 8542 c53e 61dc efbc
00000070: 870f b8bd 36ec e13d 1d9c e6bd 56e6 10be
00000080: 3b19 a2be d5c2 f33c 78e7 e63c 3f1f 203e
00000090: a157 153d 98d9 c2bd 5bb4 07bd c24d 193e
000000a0: 8f7e ac3d 8624 873e e89c 5fb9 d01d 6abe
000000b0: 6e48 873e 9716 2fbe 18d0 623d f4e2 3cbe
000000c0: 961d 10bc 29e8 7d3d 5ca8 febd 9228 4b3e
000000d0: 7272 c53d aea9 733d 8703 013e f985 7bbe
000000e0: 1ff4 bb3e 09df 393d 40dc 88bd 17da b8bc
000000f0: 9c57 163b 3ae0 05be 8441 263d 678d f5bd
00000100: da49 9dbe 4766 55be 43ad 203e 34ac 5fbe
00000110: 3f09 93ba 1181 c1bc 29a9 b0bd 52e9 fbbd
00000120: 27ee 0ebd b631 a4bd 4861 e1be 69f8 84be
00000130: 0c66 fe3d aa17 8bbd 825b 083e 79b0 27be
00000140: 6ce3 33be a880 f33a 7672 79be c1fe 733e
00000150: c5c8 a13c dfe5 9b3e 48a7 35bd dea6 52be
00000160: d288 97bd 85b5 393d ca91 f03e 9dbb 263d
00000170: c3a6 afbd 091e 8ebe 0e27 3d3d 53a1 f93e
00000180: 5c83 94bd 4a63 7fbc 4cc7 73be 796e 1cbe
00000190: 99d4 42bd a5fd e7bb e197 b4bc 19a5 d3bc
000001a0: 37ef d5bc a5a5 3abd 02a0 383d 28f2 e6bc
000001b0: 9425 8c3e f185 a03d 9773 be3c 9ce4 193e
000001c0: 4b77 fd3d 93a4 1b3d 7fa1 ea3c 9629 49be
000001d0: b5a4 cfbd 17ce 6b3d ad44 9e3e 6e4c dbbd
000001e0: 2488 9c3d d9ca a13d 2cd8 f43c 8193 0a3d
000001f0: 6482 6cbc fabf 59be 4579 eabd 1abc febd
00000200: 6076 23be a8f0 cebd 9e64 4d3d 66f3 b5bd
00000210: 92f1 04be 9813 96be dfad b5bd 6536 fdbd
00000220: 67d1 d83d 7fd6 8ebd f931 16be 233f df3d
00000230: 927b 323e 1608 e8bc aec5 68bd 8502 c13d
00000240: c6c6 25be 52f1 893e 8015 a5bd 0f71 023e
00000250: 063f 5c3d ca84 22bc ff12 6f3d 17dc 0d3e
00000260: 1def 313d fb16 713e c7eb 0b3e 13db 60be
00000270: 0b61 69be 87c9 aabd a16e 263e b07a 5b3d
00000280: 4ba1 0f3e 1733 febd 3f45 e83d 8fd8 503e
00000290: e224 23be 8f83 653d 6249 71bd e7a1 8bbd
000002a0: 0c54 23bd 16b0 eebd 9d09 38be 6435 5f3e
000002b0: a5d4 8d3e 61a8 20be 73c7 9bbd 3b8d 293d
000002c0: 8a1e 743c 759e 283e 64cd febc e66e 08be
000002d0: ecca 1fbe fec2 083e 1873 9d3c ce45 6bbd
000002e0: 1aa5 f63d b683 b43d 9695 353d a783 ab3c
000002f0: c884 3b3e 5515 56be 0009 4a3e 5b5b 9bbe
00000300: 137f 99be b5b9 04ba c96a 5cbd a331 953d
00000310: ca53 a3bd 979b 4fbd d396 153d 4e64 48bd
00000320: f06a 953e cb8b b2be 150d cdbb 93e6 80bc
00000330: 89b9 1abe d207 863e 1453 e5bd 2a17 47bb
00000340: 2543 743e ef6c 073e 5e9e 153e 6ff9 8b3c
00000350: 7e1e b5bd e094 813e cb34 8ebd 97ce 4cbb
00000360: c771 b1bd fd81 3e3e 8e34 68be bdad 603d
00000370: 504d 423d c897 27be b23b a2bd 1e46 d63b
00000380: 326d 63be b4a8 44be e066 a53e bc48 b83c
00000390: ff84 843c 505a 313a fea6 e3be 8f28 e33d
000003a0: 5cf8 48bc 74bc 5f3d 6f1a bcbe 6fc1 bcbe
000003b0: 5152 183e 53ab 213d 57c1 00be 3e66 09be
000003c0: ce04 febd 558b 873e 53f2 193d d69f 023e
000003d0: 8fec 493c 9e2e a53d 56a7 2f3e c529 04be
000003e0: 7ea6 133e fc73 b03d cd3d 16be a65d 9fbc
000003f0: 0a28 1fbe 54bf 453e 5dae 3dbe 4940 9dbc

0.bias f4 [64]
-0.047953874 0.40813908 -0.037416585 -0.3432113 -0.14393596 0.54000694 -0.08481185 0.47391632
-0.55865127 -0.2507047 0.48517466 -0.1733435 -0.12697884 0.17591184 0.07652953 0.47231665
0.5829465 -0.26402512 -0.3772911 -0.33040583 -0.2739682 0.35561392 0.069249414 0.69072044
0.14471178 0.51430875 -0.38084677 0.30743602 0.48782614 -0.057531152 -0.31198314 0.19911568
-0.104319826 -0.08549023 0.40985212 0.115597405 -0.39043975 -0.4697954 -0.17793941 -0.011005393
0.06847429 -0.42000866 -0.31980893 0.35117158 -0.5259841 -0.43039352 0.026245693 -0.15392776
0.15748331 0.46628907 0.0022193599 0.1346218 0.44243 0.41468182 -0.30846906 -0.16469817
-0.3689822 -0.18402712 0.6534625 -0.143555 0.0696699 0.13114151 0.16312099 -0.22921574
00000000: 486b 44bd 9bf7 d03e 2242 19bd 64b9 afbe
00000010: f363 13be e53d 0a3f d6b1 adbd 29a5 f23e
00000020: c503 0fbf 5e5c 80be d068 f83e f580 31be
00000030: be06 02be 3c22 343e 84bb 9c3d 7dd3 f13e
00000040: fb3b 153f 4d2e 87be 4d2c c1be f42a a9be
00000050: 8f45 8cbe 0713 b63e a3d2 8d3d 0ed3 303f
00000060: 532f 143e bda9 033f 59fe c2be 4168 9d3e
00000070: 59c4 f93e c9a5 6bbd 41bc 9fbe fbe4 4b3e
00000080: a2a5 d5bd 8015 afbd 23d8 d13e 55be ec3d
00000090: b8e7 c7be 0689 f0be c035 36be f74f 34bc
000000a0: 403c 8c3d 600b d7be ffbd a3be c3cc b33e
000000b0: e5a6 06bf 8a5c dcbe 3501 d73c 3d9f 1dbe
000000c0: 4e43 213e 71bd ee3e ae72 113b 4cda 093e
000000d0: 2f86 e23e 2d51 d43e a8ef 9dbe a3a6 28be
000000e0: 3ceb bcbe 9b71 3cbe 5249 273f 1500 13be
000000f0: 18af 8e3d f649 063e 3009 273e 88b7 6abe

2.weight f4 [64, 64]
-0.11976001 0.13410945 0.032945894 -0.12097381 0.010477201 0.08623776 -0.031197565 -0.07572483
-0.14138126 -0.20270048 0.08525178 -0.05023932 0.102071956 -0.13618213 0.05458126 0.050734717
-0.018486608 -0.022812085 -0.07904 0.0042493343 -0.0294532 0.044393163 -0.13674411 -0.041639816
-0.015751414 0.10881943 -0.0038314646 0.11335918 -0.0070374953 -0.15023698 -0.2540767 0.053400546
-0.081145816 0.011040458 0.021837868 0.12638007 -0.16454923 0.009953216 0.031153163 0.020465646
-0.048093654 -0.03486805 -0.14216834 0.0075723156 -0.10637881 -0.025034979 -0.011043784 0.015370884
-0.18427604 0.09375223 0.100059 -0.23922567 0.15125592 0.09707832 -0.26532367 -0.08630497
-0.12414986 -0.12419947 0.2294462 0.0521812 0.0632248 -0.1622643 0.09737992 -0.00064963644
0.041733745 0.10150358 0.067751564 0.090123385 0.06342877 -0.022395343 0.01224058 0.06336284
-0.108136855 0.23488939 0.02465769 -0.049569927 -0.07529093 0.1426489 0.14593278 -0.06466536
-0.017558988 0.047224954 0.09645317 0.021667162 0.115426086 0.047801062 -0.013878382 -0.07475466
-0.03112091 -0.045085073 0.03747853 0.05663922 0.021653458 0.093695976 0.021263821 -0.052693006
0.042886376 0.059314907 -0.015872069 -0.045047246 0.119534634 0.003340611 -0.00845987 -0.053041235
0.021725079 -0.03392322 0.001186633 0.18653251 0.073865876 0.018278958 0.09266621 -0.0029220243
-0.09623491 0.097084895 -0.010124962 0.04679652 -0.13969922 -0.0016539689 0.12132466 0.007962099
-0.10335379 0.04058855 0.1485095 0.008232996 0.0075724637 0.05998901 -0.04521461 -0.0020336278
0.040917248 0.0731378 -0.048128374 0.08407272 0.11883608 -0.16753952 0.2055121 0.13001084
-0.11321221 0.18251352 -0.0693582 -0.005280475 -0.030043194 0.21837579 -0.08466402 0.03535864
-0.07915816 0.0044850917 0.10339541 -0.015006415 -0.030949855 -0.0503058 0.07512599 0.107188545
-0.020136554 -0.051473945 0.09926044 0.05677713 0.091920674 -0.03153965 0.064212166 0.0023442702
0.034139834 0.026659412 0.03743512 -0.08969779 -0.1100487 -0.08821197 0.08853528 -0.009980808
-0.007736776 -0.099806935 0.13083012 -0.12104933 -0.063152686 0.05772868 -0.0021084205 -0.01323063
0.016307604 0.20397113 0.06459421 0.09909347 -0.050690256 0.029669154 0.1700323 0.11291873
0.03527253 0.14596894 -0.13527222 0.0029489938 -0.05606567 0.12986636 -0.047569092 0.014950687
0.10101449 -0.17676562 0.15541126 0.013624306 -0.0030563262 0.1094524 0.024429835 0.038556438
0.028422324 -0.13398476 -0.0058325613 0.030997952 -0.0036725888 0.003908157 0.08141919 -0.01598289
0.2859159 0.06957635 0.02172756 -0.052386414 0.12391709 0.13166127 0.024138665 0.029304758
0.17749676 0.14581622 -0.13909467 0.009834366 -0.044865932 -0.011092533 0.113918565 0.14537519
0.022052495 0.2687484 0.20816168 -0.035741415 0.024683863 0.24860513 -0.008318908 0.23525673
-0.016237857 -0.019087775 -0.05021149 0.085442245 0.10463311 0.07155817 -0.027923314 0.2020753
0.012659179 -0.09081258 -0.059595954 0.025409272 0.19371906 -0.03537951 -0.0246944 0.029392917
-0.09212819 -0.21871631 0.2433445 0.093720846 0.09434617 0.026835924 0.082321785 -0.13992235
00000000: bc44 f5bd fd53 093e 46f2 063d 1ec1 f7bd
00000010: 91a8 2b3c 6c9d b03d 0992 ffbc 9f15 9bbd
00000020: 40c6 10be b790 4fbe 7c98 ae3d bfc7 4dbd
00000030: 1a0b d13d 5473 0bbe 9990 5f3d 35cf 4f3d
00000040: 3a71 97bc 69e0 babc b9df a1bd 003e 8b3b
00000050: d647 f1bc 9bd5 353d a606 0cbe 838e 2abd
00000060: 1c09 81bc b9dc de3d 4f19 7bbb dc28 e83d
00000070: ca9a e6bb b9d7 19be 5716 82be 88ba 5a3d
00000080: c72f a6bd 0ae3 343c 54e5 b23c c769 013e
00000090: 987f 28be d012 233c eb34 ff3c 92a7 a73c
000000a0: dafd 44bd cdd1 0ebd 9494 11be 3021 f83b
000000b0: 22dd d9bd 2816 cdbc fdf0 34bc 29d6 7b3c
000000c0: dcb2 3cbe 2b01 c03d bceb cc3d 93f7 74be
000000d0: d5e2 1a3e 00d1 c63d 81d8 87be a9c0 b0bd
000000e0: 4842 febd 4b5c febd f2f3 6a3e f4bb 553d
000000f0: 017c 813d 9d28 26be 206f c73d 5d4c 2aba
00000100: 01f1 2a3d 1ce1 cf3d 55c1 8a3d 9c92 b83d
00000110: f1e6 813d 7076 b7bc b78c 483c 60c4 813d
00000120: db76 ddbd d886 703e edfe c93c d609 4bbd
00000130: 2232 9abd 8e12 123e 676f 153e 466f 84bd
00000140: ded7 8fbc f46e 413d 3d89 c53d 557f b13c
00000150: 8364 ec3d 0ccb 433d 2762 63bc f918 99bd
00000160: 47f1 febc 20ab 38bd 1683 193d 87fe 673d
00000170: 9862 b13c ade3 bf3d 7731 ae3c 9fd4 57bd
00000180: a0a9 2f3d 30f4 723d 2406 82bc 7683 38bd
00000190: 93ce f43d 27ee 5a3b 449b 0abc c441 59bd
000001a0: cbf8 b13c 13f3 0abd cc88 9b3a 6102 3f3e
000001b0: fe46 973d c1bd 953c c8c7 bd3d 6f7f 3fbb
000001c0: cf16 c5bd 72d4 c63d 2be3 25bc b5ad 3f3d
000001d0: 500d 0fbe fdc9 d8ba 1079 f83d 7773 023c
000001e0: 27ab d3bd 2e40 263d e012 183e b0e3 063c
000001f0: 6e22 f83b 09b7 753d f432 39bd 9d46 05bb
00000200: d898 273d 45c9 953d 4222 45bd 512e ac3d
00000210: 5560 f33d 7b8f 2bbe c471 523e 9021 053e
00000220: cedb e7bd d3e4 3a3e ac0b 8ebd d607 adbb
00000230: 251d f6bc e79d 5f3e 5464 adbd 39d4 103d
00000240: ac1d a2bd adf7 923b f9c0 d33d 77dd 75bc
00000250: 8d8a fdbc 740d 4ebd a8db 993d ab85 db3d
00000260: 6af5 a4bc 58d6 52bd 0f49 cb3d 238f 683d
00000270: e840 bc3d b82f 01bd ab81 833d 54a2 193b
00000280: 36d6 0b3d d764 da3c 9255 193d 7ab3 b7bd
00000290: 3661 e1bd 7aa8 b4bd fc51 b53d 8b86 23bc
000002a0: c884 fdbb 9467 ccbd 55f8 053e b6e8 f7bd
000002b0: 3256 81bd e974 6c3d 6d2d 0abb 49c5 58bc
000002c0: 8697 853c cfdd 503e f849 843d 84f1 ca3d
000002d0: 96a0 4fbd ba0c f33c f21c 2e3e ef41 e73d
000002e0: ee79 103d e278 153e cd84 0abe e843 413b
000002f0: 1ea5 65bd b0fb 043e cfd7 42bd baf3 743c
00000300: afe0 ce3d 0c02 35be 2124 1f3e 7b38 5f3c
00000310: a54c 48bb 9428 e03d 1421 c83c 5bed 1d3d
00000320: efd5 e83c 4d33 09be 121f bfbb 6bef fd3c
00000330: d1af 70bb ff0f 803b 1bbf a63d 8dee 82bc
00000340: 9263 923e 0c7e 8e3d fffd b13c 2393 56bd
00000350: 3ec8 fd3d 36d2 063e 73be c53c 8810 f03c
00000360: b6c1 353e d950 153e d56e 0ebe 5220 213c
00000370: 57c5 37bd 75bd 35bc 234e e93d 3cdd 143e
00000380: 6fa7 b43c 6499 893e 5628 553e 9765 12bd
00000390: d035 ca3c 5892 7e3e 074c 08bc 24e7 703e
000003a0: 4105 85bc f75d 9cbc 90aa 4dbd 58fc ae3d
000003b0: e249 d63d 178d 923d 6fbf e4bc d4ec 4e3e
000003c0: 7268 4f3c f2fb b9bd e31a 74bd 1b27 d03c
000003d0: 4a5e 463e 1bea 10bd e94b cabc 6ac9 f03c
000003e0: b4ad bcbd 2bf7 5fbe 4d2f 793e b7f0 bf3d
000003f0: 9138 c13d 03d7 db3c 5398 a83d ce47 0fbe

2.bias f4 [64]
0.41532 0.10384352 -0.07384022 0.15412138 0.32992154 0.067284584 0.22720014 0.19798738
0.23570105 0.16551057 0.05230126 -0.04797598 0.2610123 0.42451304 -0.24407025 0.27710494
0.30243692 -1.0559718e-05 -0.0021628875 0.41749674 -0.11264596 0.26499447 0.060729485 0.22464885
0.11036793 -0.041740995 0.3173549 -7.6971006e-11 0.23245926 -0.12770006 -0.20610572 -0.13860707
-0.031032896 0.4538484 0.15141608 0.36526552 -1.3696325e-37 -0.11263634 0.18533094 0.40600508
0.23864338 -0.025187004 -0.010851179 -0.15604083 -0.09142824 0.24499151 0.28571597 -0.041147035
0.18327086 0.32577658 -0.018242702 0.011928161 0.25867176 -9.986644e-38 -0.084745534 0.16191931
0.04628043 -0.15594456 -0.08634266 -0.06713804 -0.094221026 0.4758185 0.042542476 0.28392893
00000000: d3a4 d43e e9ab d43d 8b39 97bd ffd1 1d3e
00000010: 7aeb a83e 80cc 893d 27a7 683e 34bd 4a3e
00000020: 9e5b 713e 9a7b 293e d939 563d 7682 44bd
00000030: 67a3 853e c659 d93e 8ded 79be b3e0 8d3e
00000040: 03d9 9a3e a529 31b7 3bbf 0dbb 22c2 d53e
00000050: edb2 e6bd 5bad 873e 7bbf 783d 590a 663e
00000060: 9508 e23d 9bf8 2abd 577c a23e d342 a9ae
00000070: cd09 6e3e cec3 02be 610d 53be 03ef 0dbe
00000080: b338 febc d15e e83e d10c 1b3e 1504 bb3e
00000090: ba6c 3a82 e2ad e6bd 65c7 3d3e e6df cf3e
000000a0: ee5e 743e fa54 cebc 25c9 31bc 2bc9 1fbe
000000b0: bb3e bbbd 0edf 7a3e 5d49 923e cb89 28bd
000000c0: 5bab 3b3e 30cc a63e b871 95bc 556e 433c
000000d0: a070 843e 60ee 0782 118f adbd 2dce 253e
000000e0: 8c90 3d3d eeaf 1fbe 6cd4 b0bd ab7f 89bd
000000f0: f4f6 c0bd 7c9e f33e 0541 2e3d 225f 913e

4.weight f4 [8, 64]
0.22189653 -0.03972155 -0.16194633 0.32567394 0.23309225 0.13071036 0.12622347 0.12190478
-0.027287858 0.25755075 0.008178604 0.14830835 0.1843982 0.10672601 -0.0030577076 0.22029103
0.0921487 -1.730829e-11 -0.016759057 0.24238378 -0.2329039 0.10145487 0.15490133 0.25432426
-0.044474736 0.0043263594 0.14164829 -3.495317e-05 0.21039851 -0.071458265 -0.33849418 -0.016396664
-0.0037903062 0.06297616 0.15842463 0.2689953 1.3949166e-37 -0.12466821 0.13570216 0.2685726
0.033114277 -0.092126414 -0.07421533 0.03946529 -0.21142878 -0.019215224 0.06255604 -0.15598369
0.15865386 0.02636438 0.06233445 -0.016172983 0.19737634 -4.971375e-39 -0.057380054 -0.007385359
-0.054605596 -0.14981048 0.04961117 0.09548833 -0.047880054 0.29620907 0.10156945 0.17887744
0.14483346 -0.2621212 -0.38956898 0.2793896 0.1350241 0.15134427 -0.00087546866 -0.2485302
-0.25025272 0.21452509 -0.13641971 0.16922113 0.009586672 0.11108594 -0.19972329 0.012190357
0.032992903 -2.2822312e-13 -0.0008010594 0.008291588 -0.007255557 0.17849328 0.13434644 0.091682956
0.29739237 -0.014082364 -0.1266598 -2.4895157e-06 0.016663073 -0.16644846 -0.12389625 -0.23253894
-8.082587e-06 -0.26027328 -0.013082116 0.11288693 1.3420744e-37 0.24022555 0.033915956 0.16290064
0.045992143 0.007977526 -0.0827042 0.25063586 0.0581732 -0.23727357 -0.0074388017 -0.21965714
0.19547102 -0.25985476 -0.114475965 -0.0068044895 0.14314227 -1.8361602e-38 0.039873872 -0.10471898
0.022224426 -0.23256877 0.06120191 0.24697591 0.05947008 -0.1608819 0.12916896 -0.13569178
-0.15167686 0.074203625 0.11118956 0.22888847 -0.033154387 -0.10447305 -0.014432704 0.19727306
-0.025507351 -0.012055771 0.22455043 0.10518806 0.038411446 -0.20082828 0.24669217 0.104054935
0.14545262 -1.39676055e-14 -0.0011784337 -0.024835536 0.021594973 -0.17648655 -0.17365122 0.021396125
-0.44633755 0.024465336 0.118621394 9.540171e-10 0.09452188 0.16157833 -0.048591875 0.27889922
2.8089084e-07 0.0023060208 0.030467918 -0.12045732 -1.1555004e-37 -0.2915856 -0.052659746 0.043877292
-0.110425904 -0.04684865 0.11862838 -0.07241049 -0.13923444 -0.06412686 -0.12269406 0.0035793758
-0.043278657 0.07624685 0.22457266 0.0023194973 -0.08785767 1.2249967e-37 -0.008316014 -0.021358276
0.01660081 0.20433763 -0.09463444 -0.044889707 -0.077638105 0.14181232 -0.016793942 0.16199642
0.26422986 0.1385332 0.14559841 -0.12529176 0.19143836 0.050286397 0.15457417 0.0869043
0.26895037 0.059740387 -0.08767396 -0.16652627 0.12154496 0.22345883 -0.092686474 0.18424375
0.08501431 6.7745034e-21 0.011843149 0.19669692 -0.24384306 0.05492727 0.11359736 0.08258709
0.12446934 0.0069923885 0.17577745 2.1050916e-08 0.13993977 -0.09332997 -0.12324433 -0.031563174
-0.0005385758 0.2987685 0.16593727 0.2860768 1.3944111e-37 -0.052556325 0.12807174 0.062267687
0.11523552 -0.0046339366 -0.10486819 -0.14184988 -0.15196773 0.25298697 0.1663955 0.009090999
0.04760652 0.28483352 -0.04200064 -0.02260165 0.036866624 -6.616775e-38 -0.08674828 0.08962986
-0.08621048 -0.06521546 0.074238 -0.09634218 -0.006802655 0.2771559 0.07849223 0.152947
00000000: d838 633e 10b3 22bd 42d5 25be bcbe a63e
00000010: bcaf 6e3e f0d8 053e ba40 013e 37a9 f93d
00000020: c98a dfbc b1dd 833e 8dff 053c 25de 173e
00000030: e2d2 3c3e 2b93 da3d d263 48bb f993 613e
00000040: 75b8 bc3d ce3e 98ad 4a4a 89bc 7433 783e
00000050: 5c7e 6ebe 92c7 cf3d 749e 1e3e ca36 823e
00000060: 242b 36bd 22c4 8d3b 400c 113e ae9a 12b8
00000070: b572 573e b658 92bd 1c4f adbe 4c52 86bc
00000080: c966 78bb a5f9 803d 113a 223e c1b9 893e
00000090: c0dd 3d02 0c52 ffbd 82f5 0a3e 5982 893e
000000a0: d6a2 073d c6ac bcbd 35fe 97bd 5ba6 213d
000000b0: c980 58be 3f69 9dbc 621d 803d 30ba 1fbe
000000c0: 2876 223e 1dfa d73c 6952 7f3d 347d 84bc
000000d0: 061d 4a3e 2c22 3680 5907 6bbd e200 f2bb
000000e0: 1eaa 5fbd eb67 19be 1535 4b3d 638f c33d
000000f0: e01d 44bd b7a8 973e a503 d03d a62b 373e
00000100: 394f 143e c034 86be 9675 c7be 270c 8f3e
00000110: c243 0a3e fef9 1a3e b57f 65ba b37e 7ebe
00000120: 2021 80be 77ac 5b3e 9cb1 0bbe 4e48 2d3e
00000130: 6b11 1d3c 0681 e33d 4384 4cbe 10ba 473c
00000140: 9123 073d 6b7a 80aa 30fe 51ba 71d9 073c
00000150: 06c0 edbb f1c6 363e 1d92 093e 46c4 bb3d
00000160: d043 983e b7b9 66bc 1bb3 01be 8e11 27b6
00000170: ff80 883c 7771 2abe 51bd fdbd b01e 6ebe
00000180: 729a 07b7 8a42 85be 5f56 56bc 4331 e73d
00000190: 78ac 3602 b0fd 753e 75eb 0a3d 6dcf 263e
000001a0: 4262 3c3d 2bb4 023c d260 a9bd 5853 803e
000001b0: 0547 6e3d d8f7 72be 31c1 f3bb cded 60be
000001c0: 8e29 483e af0b 85be 6072 eabd 32f8 debb
000001d0: e393 123e adf0 c780 c952 233d e876 d6bd
000001e0: 0010 b63c 8226 6ebe dbae 7a3d 41e7 7c3e
000001f0: e696 733d 3abe 24be de44 043e c9f2 0abe
00000200: 2e51 1bbe 12f8 973d 5ab7 e33d bd61 6a3e
00000210: e5cc 07bd f7f5 d5bd 2677 6cbc f301 4a3e
00000220: cbf4 d0bc 9285 45bc 8cf0 653e d66c d73d
00000230: 5255 1d3d eea5 4dbe df9c 7c3e c11a d53d
00000240: 88f1 143e 369e 7ba8 ac75 9aba e573 cbbc
00000250: f1e7 b03c e4b8 34be a0d1 31be ed46 af3c
00000260: 5b86 e4be 876b c83c c6ef f23d 7e1e 8330
00000270: b094 c13d ca74 253e 4608 47bd e1cb 8e3e
00000280: 58cd 9634 9c20 173b db97 f93c 54b2 f6bd
00000290: 5047 1d82 b54a 95be bfb1 57bd adb8 333d
000002a0: fa26 e2bd 5fe4 3fbd 70f3 f23d f34b 94bd
000002b0: 7993 0ebe f154 83bd 0647 fbbd f693 6a3b
000002c0: f644 31bd 4f27 9c3d 60f6 653e b502 183b
000002d0: b9ee b3bd e8bc 2602 e43f 08bc 8df7 aebc
000002e0: 6cfe 873c e23d 513e b4cf c1bd 45de 37bd
000002f0: ba00 9fbd 4037 113e 7393 89bc 64e2 253e
00000300: 2349 873e a6db 0d3e c017 153e 7c4c 00be
00000310: 6b08 443e 1cf9 4d3d b148 1e3e e2fa b13d
00000320: ddb3 893e 56b2 743d 688e b3bd dd85 2abe
00000330: 90ec f83d 64d2 643e 68d2 bdbd 65aa 3c3e
00000340: fc1b ae3d faee ff1d c409 423c eb6a 493e
00000350: ffb1 79be 6bfb 603d bca5 e83d 6c23 a93d
00000360: c8e9 fe3d 6820 e53b 01ff 333e 74d3 b432
00000370: 5f4c 0f3e c923 bfbd 8667 fcbd 6348 01bd
00000380: 362f 0dba 2ff8 983e 76eb 293e a978 923e
00000390: 23cc 3d02 4d45 57bd 3d25 033e 670c 7f3d
000003a0: 9a00 ec3d 47d8 97bb 22c5 d6bd 1841 11be
000003b0: 6e9d 1bbe 8287 813e 9563 2a3e 6af2 143c
000003c0: 0eff 423d b3d5 913e dd08 2cbd 1827 b9bc
000003d0: 7501 173d 3120 b481 15a9 b1bd dc8f b73d
000003e0: 1f8f b0bd af8f 85bd 180a 983d 0d4f c5bd
000003f0: cee8 debb 61e7 8d3e 89c0 a03d 239e 1c3e

4.bias f4 [8]
0.45642224 -0.095507614 -0.0051166723 0.4645406 0.17734893 -0.110465564 -0.053514976 0.26952884
00000000: 2db0 e93e 7f99 c3bd c2a9 a7bb 44d8 ed3e
00000010: f59a 353e c53b e2bd 8532 5bbd afff 893e
