nn10.pth (torch, 23722 bytes, 6 tensors)

0.weight f4 [64, 10]
0.4643178 0.17565791 0.13440503 -0.10165748 -0.07064153 0.10539692 0.12973897 0.062596284
-0.26882756 0.105415665 -0.23581433 -0.4586715 0.04553592 -0.06576379 -0.2965457 -0.26264936
0.34520772 -0.1144871 0.02139619 -0.28385773 -0.19399433 -0.013734802 0.0041000126 -0.12065891
-0.011374863 -0.16993037 -0.073428035 0.054499775 -0.005895565 0.15766682 0.16000488 0.30113685
-0.09143619 0.014325929 0.20381185 0.20971859 0.15200104 -0.04250523 -0.40455973 0.09675887
-0.122857444 0.2413806 0.19224341 -0.12928279 0.3453913 0.14430635 -0.08585037 0.04203033
-0.03935199 -0.10961856 0.026937049 -0.1762122 0.13951373 0.2910755 0.0986758 -0.042274196
-0.031468984 0.30382314 0.056167074 0.07967806 -0.09284954 -0.30182514 0.30848467 0.014796062
0.12053328 -0.023194933 -0.33247954 0.3331391 -0.14431126 -0.0698834 0.17504674 -0.47031593
-0.0586986 -0.30766687 -0.11522591 -0.037316885 -0.37724876 -0.22273748 -0.3982854 -0.35429466
-0.30643314 0.14558932 -0.35506245 -0.110755384 0.3577992 -0.2600514 0.13719574 -0.005377224
-0.2195919 0.06413257 0.12524924 -0.07495791 0.0229814 -0.044427026 -0.15377931 -0.19412006
0.5821108 0.11605968 0.015274263 0.18071766 -0.3739638 -0.4254091 -0.105023645 -0.2220387
-0.44351712 -0.39270297 0.4282302 -0.007386985 -0.11866762 -0.397102 -0.17822386 -0.1361703
0.09936044 0.11985216 0.2991707 -0.14370802 -0.27152118 0.09692043 0.039295416 -0.12493746
0.26319847 -0.17939612 0.26464283 -0.05764773 -0.21043792 -0.08980208 -0.3564893 0.0068470235
-0.2718345 -0.6295972 -0.13353613 0.4118856 -0.3042402 0.056059636 0.19045772 0.09472753
0.028910045 -0.19444932 0.037545003 0.13757923 -0.0052758246 -0.33178872 -0.09458069 -0.0120139485
-0.22236395 0.027289132 -0.40995374 -0.04635365 -0.40504584 -0.15911683 0.019548547 0.39320928
0.0742109 -0.038381264 0.4242056 0.24047849 0.4909209 0.08446125 -0.06109842 0.69102967
0.5826261 0.13652922 -0.19433734 -0.037055723 -0.053082243 0.18895918 0.24142034 -0.21998303
0.17953396 -0.027184503 -0.2772273 0.09892746 0.13944443 0.19131225 0.1255322 0.0784308
-0.2018614 -0.06434952 0.27270406 -0.34606692 -0.22461155 -0.0049895444 0.20293355 0.02408132
0.10569685 0.3635635 0.07389044 0.080167525 0.33826438 -0.24153852 0.25528678 -0.059547964
0.082038306 0.0026843094 0.28557622 -0.07327261 0.28167334 -0.15849125 0.30284843 0.027989075
0.26192036 0.5151792 0.05371871 -0.24288316 0.09903481 0.30951688 -0.04896321 0.018053351
0.10289534 -0.23190539 -0.38495302 0.20847428 0.053703144 -0.08239801 0.1325908 0.11847845
0.15947689 -0.09641872 0.3668013 -0.1343712 -0.10540285 0.010964942 -0.008077625 0.008565779
-0.0037082112 0.057306953 0.043431487 -0.040895995 0.027334353 -0.06800653 0.031677336 -0.0186871
0.051029153 0.12754141 -0.13106304 -0.13627852 -0.045710478 -0.12795219 0.05374313 -0.10372813
0.15166932 -0.12188233 -0.106658764 0.110613674 -0.26501113 0.10117911 0.15769869 0.1751204
-0.38420042 0.2455629 0.08143928 -0.26907358 -0.1287566 0.18011679 -0.22485043 0.11174642
00000000: 10bb ed3e abdf 333e 79a1 093e cc31 d0bd
00000010: 82ac 90bd 57da d73d 4bda 043e 7b32 803d
00000020: c4a3 89be 2be4 d73d 5079 71be fed6 eabe
00000030: df83 3a3d 2aaf 86bd d7d4 97be fa79 86be
00000040: 11bf b03e 3678 eabd 1047 af3c cd55 91be
00000050: 73a6 46be ef07 61bc 6659 863b 051c f7bd
00000060: a25d 3abc 3a02 2ebe 7061 96bd 283b 5f3d
00000070: 952f c1bb 6973 213e 52d8 233e 9c2e 9a3e
00000080: e642 bbbd 4db7 6a3c 0eb4 503e 78c0 563e
00000090: 29a6 1b3e f719 2ebd 7422 cfbe 8429 c63d
000000a0: af9c fbbd 7a2c 773e 75db 443e b562 04be
000000b0: 21d7 b03e 0bc5 133e 52d2 afbd ff27 2c3d
000000c0: 8d2f 21bd b27f e0bd 16ab dc3c f970 34be
000000d0: b0dc 0e3e d907 953e 8a16 ca3d b527 2dbd
000000e0: 9fe5 00bd b58e 9b3e 720f 663d 402e a33d
000000f0: e627 bebd d388 9abe b4f1 9d3e 2f6b 723c
00000100: 27da f63d 4d03 bebc c23a aabe 3591 aa3e
00000110: 55c6 13be 071f 8fbd 743f 333e 40cd f0be
00000120: f16d 70bd 8386 9dbe 90fb ebbd 97d9 18bd
00000130: c026 c1be 4b15 64be 10ec cbbe 1c66 b5be
00000140: cee4 9cbe 5e15 153e bfca b5be b8d3 e2bd
00000150: 7531 b73e 7525 85be 0a7d 0c3e 6d33 b0bb
00000160: b3dc 60be f057 833d 5641 003e 8883 99bd
00000170: 7d43 bc3c 1df9 35bd 5378 1dbe 69c7 46be
00000180: 3705 153f b3b0 ed3d e740 7a3c 0d0e 393e
00000190: 2f78 bfbe 39cf d9be a316 d7bd 1d5e 63be
000001a0: ad14 e3be 5d10 c9be fd40 db3e 850e f2bb
000001b0: 0208 f3bd f450 cbbe 5180 36be 3a70 0bbe
000001c0: 7d7d cb3d 0d75 f53d e72c 993e 3228 13be
000001d0: d304 8bbe 387e c63d 3bf4 203d 36df ffbd
000001e0: f3c1 863e 9eb3 37be 447f 873e 0720 6cbd
000001f0: 0a7d 57be 27ea b7bd c485 b6be ff5c e03b
00000200: e42d 8bbe 482d 21bf b2bd 08be abe2 d23e
00000210: 5fc5 9bbe ca9e 653d 5907 433e 8200 c23d
00000220: c2d4 ec3c b91d 47be cac8 193d 92e1 0c3e
00000230: d3e0 acbb 36e0 a9be 85b3 c1bd 27d6 44bc
00000240: 60b3 63be 758d df3c 75e5 d1be 53dd 3dbd
00000250: 2b62 cfbe 86ef 22be 4624 a03c ba52 c93e
00000260: e2fb 973d ac35 1dbd 7a31 d93e fe3f 763e
00000270: fc59 fb3e 05fa ac3d 5642 7abd 52e7 303f
00000280: fc26 153f 51ce 0b3e 5e00 47be bec7 17bd
00000290: c46c 59bd 847e 413e e536 773e 3b43 61be
000002a0: c0d7 373e 09b2 debc bdf0 8dbe 7b9a ca3d
000002b0: 85ca 0e3e 5ce7 433e 838b 003e 54a0 a03d
000002c0: c1b4 4ebe aec9 83bd de9f 8b3e af2f b1be
000002d0: 9200 66be 557f a3bb d0cd 4f3e 3046 c53c
000002e0: 9777 d83d ff24 ba3e df53 973d df2e a43d
000002f0: fd30 ad3e e055 77be f3b4 823e 91e8 73bd
00000300: b303 a83d 3deb 2f3b 0c37 923e f30f 96bd
00000310: 7d37 903e 884b 22be f30e 9b3e 5849 e53c
00000320: 6d1a 863e c9e2 033f 2608 5c3d 5db6 78be
00000330: c3d2 ca3d ff78 9e3e a68d 48bd 9fe4 933c
00000340: cbba d23d 9b78 6dbe 9018 c5be 487a 553e
00000350: d4f7 5b3d 4ac0 a8bd e2c5 073e d4a4 f23d
00000360: e94d 233e 2e77 c5bd 61cd bb3e 9b98 09be
00000370: 73dd d7bd 4da6 333c 0458 04bc 7b57 0c3c
00000380: 7605 73bb b2ba 6a3d 37e5 313d 8f82 27bd
00000390: 4bec df3c 0247 8bbd 18c0 013d b015 99bc
000003a0: f203 513d 379a 023e 6435 06be 998c 0bbe
000003b0: e93a 3bbd e605 03be c221 5c3d 6a6f d4bd
000003c0: 344f 1b3e 719d f9bd e96f dabd 6c89 e23d
000003d0: 8aaf 87be fe36 cf3d c47b 213e c352 333e
000003e0: ebb5 c4be d774 7b3e a3c9 a63d 03c4 89be
000003f0: c5d8 03be 8970 383e 313f 66be 4fdb e43d

0.bias f4 [64]
0.35681525 -0.16298762 0.3781243 -0.29867297 0.36900306 0.4947035 -0.16855173 -0.16673785
-0.069807336 0.31512362 -0.009979581 0.5711475 -0.039328706 -0.18033603 -0.36280146 -0.3606106
-0.01767847 -0.31098497 -0.52841234 0.349082 -0.30707276 -0.40003565 0.43043327 -0.05918341
0.2095142 -0.0007963862 -0.052442063 -0.2883273 0.5355703 0.2659273 -0.28191733 0.3763797
0.0495754 0.1314331 0.40163302 0.12749283 -0.3496829 -0.121390715 0.15905589 0.110631205
0.33551753 0.46881163 -0.2831878 0.5050685 -0.24120122 0.46868104 -0.16171493 0.028060822
-0.13573505 -0.08725849 -0.2193453 -0.1943994 0.16549256 -0.019741455 0.12595972 -0.4547675
0.2586041 0.69064736 -0.13090287 0.37139148 -0.17357129 -0.023854477 -0.16761917 -0.37802255
00000000: 7db0 b63e 3ae6 26be 8299 c13e aaeb 98be
00000010: f8ed bc3e c749 fd3e d398 2cbe 54bd 2abe
00000020: 26f7 8ebd e257 a13e 6681 23bc b936 123f
00000030: 2317 21bd 02aa 38be 1dc1 b9be f4a1 b8be
00000040: 70d2 90bc 6c39 9fbe 0846 07bf e0ba b23e
00000050: a438 9dbe 79d1 ccbe c061 dc3e 4e6a 72bd
00000060: e48a 563e 93c4 50ba 7dcd 56bd a39f 93be
00000070: 231b 093f a027 883e 7857 90be d7b4 c03e
00000080: 930f 4b3d 6696 063e d8a2 cd3e 7b8d 023e
00000090: a309 b3be b29b f8bd 8cdf 223e 9d92 e23d
000000a0: f4c8 ab3e 1408 f03e fefd 90be 2b4c 013f
000000b0: 74fd 76be f6f6 ef3e 9998 25be cfdf e53c
000000c0: 21fe 0abe 94b4 b2bd 0e9c 60be a310 47be
000000d0: e276 293e d5b8 a1bc 96fb 003e 49d7 e8be
000000e0: c267 843e 44ce 303f 670b 06be 0627 be3e
000000f0: acbc 31be 776a c3bc 5ca4 2bbe 2c8c c1be

2.weight f4 [64, 64]
0.1566851 0.038583778 0.0073458506 -0.09425484 0.06285508 0.16331026 -0.21337058 -0.06952157
-0.1635136 0.06883168 0.03309004 0.03568157 0.042056125 -0.12949435 -0.095649056 -0.08278191
0.072663076 -0.08343094 -0.04298713 0.18948407 -0.111295246 -0.05609573 0.13471778 0.053893898
-0.056653358 -0.056260236 0.0012438343 -0.16390288 0.13393351 -0.016317373 -0.115491964 0.08921358
-0.0076899417 0.07509458 0.0057770135 0.12088717 0.09126762 0.06412004 -0.054859865 0.0032040053
0.10752965 0.10082183 0.07108452 0.10562265 -0.18513906 0.10069785 -0.0075325957 -0.039939012
-0.10500654 -0.03591361 -0.055761077 -0.23125765 0.09067525 0.11819721 0.033900525 -0.07848656
0.04242683 0.40916446 -0.0013723319 0.06313311 -0.063255444 -0.018001692 -0.047781184 -0.09269848
0.04496469 0.03484185 -0.034521002 0.08167992 -0.011174214 -0.037335664 0.16340552 -0.09289546
0.033089068 0.18407728 -0.0415778 0.033488434 0.121142775 -0.16939208 0.045156777 0.11313651
-0.050783765 0.15382555 0.009132815 0.064768724 -0.008558948 -0.012275682 -0.09967559 0.11615917
-0.11259665 -0.07951256 -0.02130854 -0.016054785 -0.05336505 -0.0097815385 0.05580321 0.02614527
0.09274645 0.0057542315 -0.07355056 0.085779615 0.08630298 -0.10675096 0.025979359 -0.011812926
-0.03395332 -0.06618042 -0.014976288 0.11444773 -0.09787394 0.068187125 -0.004235337 -0.06607801
0.16628316 0.027100032 -0.121024795 0.15657279 0.010114518 -0.013472615 -0.030885534 0.09083633
-0.05659092 0.0012121295 0.11241471 0.13190353 -0.038822446 0.10005264 -0.048130907 0.035185818
0.06781825 -0.09830233 0.16328205 -0.19642366 0.15404975 0.05072626 -0.1865704 -0.015013908
-0.12429314 0.116995014 0.033110376 0.12658706 -0.14046945 0.11996329 -0.18258195 -0.14558935
-0.025226975 -0.053006217 -0.10846234 -0.049082816 -0.27942738 -0.04163754 0.21265532 -0.042617694
-0.050078243 -0.0029928407 -0.055544697 -0.029828567 -0.01014868 0.05666001 -0.05746703 0.1124943
-0.08021002 0.038586356 0.05326597 -0.14956285 -0.122925825 -0.01963311 0.010295295 -0.18014787
0.08724243 0.13574101 -0.028078783 0.035282653 0.09013701 -0.041175075 0.04214909 -0.02947445
-0.2103497 -0.0034873367 0.021311712 -0.13895172 0.008523879 0.037275504 -0.048916973 -0.321431
-0.068861604 0.30720612 -0.09836845 0.09524159 -0.18496512 0.07309773 -0.07969484 -0.18205069
0.11727123 -0.07289733 0.026982015 -0.066071406 0.043059077 0.071404584 -0.06606327 -0.1550577
0.02465231 0.18093637 0.046066895 0.23116174 -0.07347769 -0.12558115 -0.07673335 -0.0895081
0.06636171 0.030242654 -0.06295703 0.11527464 -0.30084884 -0.026864778 0.15468973 0.13242361
-0.09422413 -0.03388325 0.07847856 0.08486267 -0.027416212 0.03460745 -0.06480184 -0.06343387
-0.014325709 0.1167936 0.12241508 -0.017749049 0.08610235 0.01663925 0.09129052 0.1362367
0.058611244 0.10752665 -0.088129796 0.12851653 -0.17555326 0.039965056 0.035051152 0.06952347
-0.02343246 -0.19916865 -0.12317505 0.008409382 -0.0024234627 -0.042320434 -0.039413903 -0.4631137
0.023924876 0.4328265 0.030988079 0.09653837 -0.028901625 0.11720373 -0.02461663 -0.0006425117
00000000: 0f72 203e 060a 1e3d 76b5 f03b ae08 c1bd
00000010: 2aba 803d ce3a 273e d17d 5abe 5361 8ebd
00000020: 1c70 27be a0f7 8c3d 6c89 073d d726 123d
00000030: 0b43 2c3d 2b9a 04be a7e3 c3bd 9089 a9bd
00000040: 61d0 943d d7dd aabd 4613 30bd 1d08 423e
00000050: c3ee e3bd a3c4 65bd 75f3 093e d9bf 5c3d
00000060: 5a0d 68bd 2271 66bd 2708 a33a 28d6 27be
00000070: de25 093e 03ac 85bc 0d87 ecbd 9cb5 b63d
00000080: e8fb fbbb 30cb 993d 1a4d bd3b b193 f73d
00000090: 85ea ba3d 5e51 833d bdb4 60bd 4afa 513b
000000a0: 8138 dc3d ad7b ce3d c394 913d b050 d83d
000000b0: 1895 3dbe ad3a ce3d fed3 f6bb 1797 23bd
000000c0: ab0d d7bd 261a 13bd ba65 64bd cece 6cbe
000000d0: f2b3 b93d 6111 f23d 47db 0a3d 90bd a0bd
000000e0: c1c7 2d3d 017e d13e d1df b3ba ef4b 813d
000000f0: 128c 81bd 4978 93bc 34b6 43bd b3d8 bdbd
00000100: e52c 383d 54b6 0e3d e565 0dbd cd47 a73d
00000110: 0d14 37bc 48ed 18bd c753 273e fa3f bebd
00000120: 6788 073d c17e 3c3e 7c4d 2abd 2b2b 093d
00000130: b419 f83d 1e75 2dbe 50f6 383d 1db4 e73d
00000140: a302 50bd 7284 1d3e cda1 153c 77a5 843d
00000150: d43a 0cbc f11f 49bc b722 ccbd dce4 ed3d
00000160: 1399 e6bd 7bd7 a2bd 3f8f aebc 5385 83bc
00000170: 5095 5abd bf42 20bc e891 643d 9b2e d63c
00000180: daf1 bd3d fe8d bc3b ada1 96bd 39ad af3d
00000190: 9ebf b03d 3fa0 dabd aad2 d43c 018b 41bc
000001a0: a312 0bbd 9a89 87bd 1b5f 75bc 9263 ea3d
000001b0: 2272 c8bd b1a5 8b3d 95c8 8abb e853 87bd
000001c0: 2246 2a3e e300 de3c d9db f7bd 9e54 203e
000001d0: 5db7 253c 3ebc 5cbc a903 fdbc 6608 ba3d
000001e0: e1cb 67bd 51e0 9e3a af39 e63d b811 073e
000001f0: 4904 1fbd 66e8 cc3d ea24 45bd 011f 103d
00000200: 4be4 8a3d bb52 c9bd 6933 273e 4923 49be
00000210: 38bf 1d3e 57c6 4f3d 500c 3fbe e5fc 75bc
00000220: 678d febd 159b ef3d bf9e 073d 0aa0 013e
00000230: 39d7 0fbe 50af f53d c3f6 3abe 6015 15be
00000240: cda8 cebc 0c1d 59bd 8121 debd 100b 49bd
00000250: 1b11 8fbe 208c 2abd 51c2 593e e48f 2ebd
00000260: d81e 4dbd 8923 44bb d682 63bd 0a5b f4bc
00000270: a646 26bc 5414 683d 8c62 6bbd 6963 e63d
00000280: 2745 a4bd ba0c 1e3d 6b2d 5a3d 0127 19be
00000290: 89c0 fbbd 9ed5 a0bc 99ad 283c af78 38be
000002a0: 29ac b23d b1ff 0a3e 7a05 e6bc 8b84 103d
000002b0: c199 b83d 32a7 28bd 86a4 2c3d 6774 f1bc
000002c0: e965 57be cd8b 64bb e695 ae3c 5c49 0ebe
000002d0: bda7 0b3c 33ae 183d 2a5d 48bd 9b92 a4be
000002e0: 5007 8dbd 1f4a 9d3e 6675 c9bd 060e c33d
000002f0: 7f67 3dbe 43b4 953d 0c37 a3bd 7f6b 3abe
00000300: e62b f03d 324b 95bd 6309 dd3c 7250 87bd
00000310: b75e 303d 913c 923d 2e4c 87bd 72c7 1ebe
00000320: a4f3 c93c 6247 393e a4b0 3c3d aab5 6c3e
00000330: 797b 96bd 5898 00be 6026 9dbd 0650 b7bd
00000340: a6e8 873d 71bf f73c 9eef 80bd 1c15 ec3d
00000350: dc08 9abe 8613 dcbc fc66 1e3e 0e9a 073e
00000360: 95f8 c0bd 2ac9 0abd 5eb9 a03d 7bcc ad3d
00000370: f797 e0bc 8bc0 0d3d d4b6 84bd 9ee9 81bd
00000380: 61b6 6abc 7c31 ef3d c2b4 fa3d 7466 91bc
00000390: 6e56 b03d 094f 883c 86f6 ba3d a281 0b3e
000003a0: 5812 703d ef36 dc3d 657d b4bd d699 033e
000003b0: 3cc4 33be 66b2 233d cc91 0f3d 5262 8e3d
000003c0: 6ef5 bfbc def2 4bbe 3343 fcbd 81c7 093c
000003d0: f5d2 1ebb 3158 2dbd 7970 21bd 3d1d edbe
000003e0: 1afe c33c 6f9b dd3e b6da fd3c e9b5 c53d
000003f0: 1ac3 ecbc 8208 f03d d1a8 c9bc 3b6e 28ba

2.bias f4 [64]
0.3385175 -0.042561032 0.16237743 0.36663356 0.013629192 0.03938838 0.034438964 0.4019077
-0.09036836 0.17801125 -0.0030996671 0.035168156 0.17074224 0.15077661 -0.0976968 0.14721267
0.1823858 0.055316556 -0.08590072 0.084005706 -0.20158258 0.09694686 -0.027712418 0.41382152
0.00227874 0.35335553 0.27738553 0.12883121 -0.05704116 0.21152952 -0.04793799 0.39844513
-0.01246955 0.19506413 -0.0003380048 -0.028603425 0.0031477886 0.34239805 0.088913605 0.38807297
0.025875797 0.1990059 0.0007852956 -0.0784257 -0.12661964 -0.13283871 0.3524469 -0.10244208
0.097952664 -4.57208e-10 0.07262676 0.10449249 0.3782613 0.1434488 0.2530488 0.29764587
0.107166946 0.05442471 0.062545754 0.17989285 0.034614448 0.36072302 -0.023839109 0.42616987
00000000: 2a52 ad3e 7a54 2ebd 4546 263e 65b7 bb3e
00000010: f94c 5f3c b655 213d df0f 0d3d d9c6 cd3e
00000020: 0c13 b9bd 9548 363e c923 4bbb 7c0c 103d
00000030: 0ed7 2e3e 2f65 1a3e 4315 c8bd ebbe 163e
00000040: 58c3 3a3e 9d93 623d b7ec afbd 2f0b ac3d
00000050: aa6b 4ebe 138c c63d 2705 e3bc 6ae0 d33e
00000060: ea56 153b 04eb b43e 7a05 8e3e 54ec 033e
00000070: fea3 69bd 329b 583e a05a 44bd 0001 cc3e
00000080: 154d 4cbc e4be 473e 3c36 b1b9 bb51 eabc
00000090: 214b 4e3b cc4e af3e 5618 b63d 80b1 c63e
000000a0: 7bf9 d33c 34c8 4b3e 4cdc 4d3a a79d a0bd
000000b0: 94a8 01be df06 08be ec73 b43e 27cd d1bd
000000c0: 689b c83d 4e5a fbaf 57bd 943d 2900 d63d
000000d0: 77ab c13e 3ee4 123e 9d8f 813e 0a65 983e
000000e0: 587a db3d 72ec 5e3d fd17 803d d535 383e
000000f0: e1c7 0d3d b0b0 b83e 3c4a c3bc f032 da3e

4.weight f4 [8, 64]
0.16912867 0.0815601 0.04001206 0.24513374 -0.07495024 0.19571744 0.034281485 0.15783045
0.041779246 0.017575478 0.010207551 -0.007836944 -0.09776852 0.06649411 0.0838304 -0.0034834812
0.08947349 -0.020238979 -0.17148392 0.043798864 -0.015939448 -0.06434283 -0.031067198 0.23212935
-0.09573112 0.09143543 0.12645277 0.09635343 0.0074624917 0.13185027 4.9679986e-08 0.21246722
-0.10790781 0.083628066 -0.054375555 0.09475226 0.13777709 0.1870306 0.019243214 0.11945381
-0.0445392 0.067280486 0.022678256 -0.04568115 -0.08111991 -0.048060633 -0.056308754 -0.00836735
0.13486826 6.7721616e-38 -0.08441595 -0.098759346 0.13394214 0.13083865 0.060177784 0.21627825
0.12539434 0.095788926 0.15680511 0.07918721 -0.006540248 0.22594595 -0.009788031 0.12444073
0.029316287 0.18597648 0.009622304 0.20091844 -0.074745566 0.13154496 -0.05618281 -0.012307645
0.087828964 0.030377306 -0.0019401957 0.065229505 -0.18579945 -0.010688003 -0.088994846 -0.0633556
-0.109567605 0.051686455 -0.037451815 -0.13518777 0.053314123 -0.09279351 0.16319807 -0.008795282
-0.10408476 0.12033547 -0.10302442 -0.047538165 -0.036047116 -0.25193608 -0.02652694 0.17949721
-0.3351477 -0.031741507 0.020179773 -0.00949705 0.1350897 0.081179 0.07201031 -0.0674895
0.058402773 -0.030741755 0.001176898 -0.040848453 -0.11890653 0.0070958952 -0.27520055 -0.013119351
0.22168857 9.175365e-38 -0.15311795 0.06252282 -0.05731141 -0.15542598 -0.015234381 0.2758365
-0.061024684 0.08015362 0.05727579 0.017121721 -0.065208115 0.08136457 0.013823169 -0.017428398
-0.07646404 -0.064196736 -0.04317441 0.054121915 -0.1416051 -0.027715413 0.21531859 -0.10998059
-0.09555519 -0.0081429705 3.573164e-05 -0.13105729 -0.072572656 -0.004757336 -0.03914428 -0.023654347
0.075041965 -0.09540983 0.015545642 0.12191291 -0.041524764 0.05083035 -0.15753451 0.06952303
-0.02525962 -0.15011528 -0.02532597 -0.12497269 -0.016968673 -0.014556602 6.6944056e-05 -0.04800281
0.08512383 0.15575248 -0.16580826 -0.00549593 0.00040542075 -0.063476175 0.10795131 0.060534548
0.008724028 0.008851201 0.074021555 -0.11015089 0.22876623 -0.056455884 -0.09854329 -0.022068989
0.094024874 9.888667e-38 0.10421294 0.015702879 0.05472701 0.17603798 -0.064757414 0.045718644
-0.08781968 0.027424136 0.093506716 0.017065898 0.071555234 0.076295085 -0.008569748 -0.025835609
0.15275308 -0.062231343 0.17371733 0.13651285 -0.02701568 -0.02549921 -0.13531618 0.0007981493
-0.06820614 0.089986175 -4.214023e-06 0.04573985 0.026157044 0.15320258 -0.08850074 0.17460644
0.21403316 0.0576653 -0.004126583 0.075670466 -0.04073794 0.10775327 -0.03471013 0.2143805
-0.033424985 0.1583 0.01780631 0.011218967 -0.09367584 0.14793126 0.015865503 0.0872587
0.17477581 0.011359666 -0.033850096 0.021400487 -0.070413485 0.15834172 -0.07681163 0.18258974
0.03168406 0.13550302 -0.08563986 -0.044396326 -0.13490953 -0.095710516 0.29348487 -0.02801459
-0.04696983 9.733308e-38 0.050154477 0.031501953 0.105085686 0.11708734 0.12952572 -0.044740602
0.024448616 0.0021454063 -0.11086998 0.08906067 0.057931654 0.19315353 -0.055981297 0.27514395
00000000: 1130 2d3e fb08 a73d b0e3 233d 5704 7b3e
00000010: 837f 99bd 276a 483e be6a 0c3d 4e9e 213e
00000020: b720 2b3d 73fa 8f3c 923d 273c 8766 00bc
00000030: dd3a c8bd 102e 883d 46af ab3d 1e4b 64bb
00000040: e13d b73d 37cc a5bc 7b99 2fbe 7066 333d
00000050: 7293 82bc 2cc6 83bd a380 febc 51b3 6d3e
00000060: ad0e c4bd 8042 bb3d d67c 013e f254 c53d
00000070: eb87 f43b c203 073e b95f 5533 0291 593e
00000080: c5fe dcbd 3145 ab3d e7b8 5ebd 790d c23d
00000090: 7015 0d3e f384 3f3e f2a3 9d3c 33a4 f43d
000000a0: bc6e 36bd 5aca 893d c0c7 b93c 281c 3bbd
000000b0: 3222 a6bd 3adb 44bd 02a4 66bd 3617 09bc
000000c0: e81a 0a3e 145b b801 45e2 acbd 5742 cabd
000000d0: 2128 093e 91fa 053e fb7c 763d 0c78 5d3e
000000e0: 6067 003e fc2c c43d 8591 203e e72c a23d
000000f0: 944f d6bb 605e 673e fa5d 20bc c8da fe3d
00000100: b628 f03c 9e70 3e3e dea6 1d3c 90bd 4d3e
00000110: 3414 99bd b9b3 063e f21f 66bd 01a6 49bc
00000120: acdf b33d d4d9 f83c 2a4e feba 0c97 853d
00000130: 3642 3ebe bc1c 2fbc ee42 b6bd 95c0 81bd
00000140: fb64 e0bd 2db5 533d 1367 19bd aa6e 0abe
00000150: e95f 5a3d 860a bebd 651d 273e 161a 10bc
00000160: 642a d5bd 7172 f63d 78fe d2bd 61b7 42bd
00000170: 24a6 13bd c4fd 80be 064f d9bc 1ece 373e
00000180: 7b98 abbe 6203 02bd 0d50 a53c 8499 1bbc
00000190: f454 0a3e 2d41 a63d 247a 933d ef37 8abd
000001a0: bf37 6f3d 22d6 fbbc 2542 9a3a b550 27bd
000001b0: 4485 f3bd af84 e83b 16e7 8cbe 8cf2 56bc
000001c0: 5402 633e f6c6 f901 f4ca 1cbe f70b 803d
000001d0: 5ebf 6abd fd27 1fbe a099 79bc 713a 8d3e
000001e0: 05f5 79bd 9527 a43d 059a 6a3d da42 8c3c
000001f0: d58b 85bd 78a2 a63d 937a 623c 00c6 8ebc
00000200: 2e99 9cbd 9479 83bd a6d7 30bd f1ae 5d3d
00000210: ed00 11be 6f0b e3bc 7a7c 5c3e 813d e1bd
00000220: 71b2 c3bd 186a 05bc 8ede 1538 e233 06be
00000230: f9a0 94bd 6de3 9bbb c155 20bd c3c6 c1bc
00000240: 9aaf 993d 3b66 c3bd 26b3 7e3c 7aad f93d
00000250: df15 2abd 7c33 503d ba50 21be 1762 8e3d
00000260: 43ed cebc d2b7 19be 6978 cfbc aff1 ffbd
00000270: e301 8bbc d07e 6ebc 5164 8c38 989e 44bd
00000280: 6755 ae3d 947d 1f3e a4c9 29be 3417 b4bb
00000290: a78e d439 ccff 81bd 9415 dd3d 13f3 773d
000002a0: 3aef 0e3c a104 113c 9d98 973d ca96 e1bd
000002b0: b241 6a3e 493e 67bd 10d1 c9bd 06ca b4bc
000002c0: 1d90 c03d fa98 0602 986d d53d 53a3 803c
000002d0: 6e29 603d 4d43 343e 899f 84bd 7943 3b3d
000002e0: ceda b3bd 95a8 e03c 7380 bf3d c8cd 8b3c
000002f0: 8d8b 923d 9940 9c3d 2168 0cbc 33a5 d3bc
00000300: 4e6b 1c3e 4be6 7ebd f5e2 313e 06ca 0b3e
00000310: fd4f ddbc b8e3 d0bc 5390 0abe e53a 513a
00000320: a9af 8bbd ac4a b83d 2f66 8db6 b559 3b3d
00000330: 4c47 d63c 23e1 1c3e e03f b5bd 08cc 323e
00000340: 822b 5b3e 7332 6c3d 4a38 87bb 1ef9 9a3d
00000350: d4dc 26bd bfad dc3d 362c 0ebd 9086 5b3e
00000360: a3e8 08bd 6519 223e 8ade 913c c2cf 373c
00000370: 1ed9 bfbd 4b7b 173e 5ff8 813c b0b4 b23d
00000380: 6ef8 323e e41d 3a3c 66a6 0abd 1350 af3c
00000390: f234 90bd 5524 223e 6a4f 9dbd cef8 3a3e
000003a0: 25c7 013d 4ec1 0a3e f363 afbd ecd8 35bd
000003b0: b925 0abe e003 c4bd a643 963e da7e e5bc
000003c0: 7063 40bd a17b 0402 c86e 4d3d 3108 013d
000003d0: 2a37 d73d 7dcb ef3d 64a2 043e ec41 37bd
000003e0: 7748 c83c f299 0c3b cd0f e3bd 7165 b63d
000003f0: be49 6d3d 0aca 453e a54c 65bd abdf 8c3e

4.bias f4 [8]
0.30457148 0.022032646 -0.040765487 0.3790312 0.13737991 0.027019603 0.00031076447 0.25451714
00000000: cbf0 9b3e cf7d b43c b6f9 26bd 6110 c23e
00000010: 52ad 0c3e 3758 dd3c 1aee a239 1250 823e
