nn10000.pth (torch, 23816 bytes, 6 tensors)

0.weight f4 [64, 10]
0	0x3e40cbd2	0.18827751
1	0x3de1db91	0.11028207
2	0xbde70135	-0.11279527
3	0x3da0dbcb	0.07854422
4	0xbc4155b8	-0.011800222
5	0x3e4a29bd	0.19742484
6	0xbd86d9fa	-0.065845445
7	0x3ca3a7de	0.019977506
8	0x3b642b8c	0.0034815995
9	0xbd847228	-0.06467086
10	0xbf2b3b93	-0.6688778
11	0x3d560c5b	0.052257877
12	0xbb080f27	-0.0020760985
13	0x3d3587ec	0.04431908
14	0xbc07a5b2	-0.008279251
15	0x3dfa9ec9	0.12237317
16	0x3cae7999	0.021298217
17	0x3cb2c5db	0.02182286
18	0x3bd0e119	0.00637449
19	0xbd4483a5	-0.04797711
20	0xbde9ad5e	-0.1141002
21	0x3e25a192	0.16174915
22	0xbc9eb755	-0.019374529
23	0x3da4a77d	0.08039758
24	0x3e74af04	0.23894888
25	0x3ced983d	0.029003257
26	0xbdd5dbd7	-0.10442322
27	0x3ba36fb8	0.004987683
28	0xbde38c57	-0.11110752
29	0x3d065ad5	0.032801468
30	0x3ebc22fb	0.36745438
31	0x3ccac0dd	0.024750168
32	0xbc375f02	-0.011192085
33	0xbd57fe0d	-0.052732516
34	0x384714e2	4.7464746e-05
35	0xbd82e019	-0.063903995
36	0x3c7f7c1d	0.015593556
37	0x3d48c481	0.049015526
38	0xbe033936	-0.12814793
39	0x3d28335c	0.041064605
40	0xbdbbc556	-0.09168498
41	0x3baa4cb3	0.0051971315
42	0xbddc5f47	-0.1076036
43	0xbdc5b8a6	-0.096543595
44	0x3c106826	0.008813893
45	0x3cee9e1e	0.02912813
46	0x3c83a90c	0.016071819
47	0x3e34de0e	0.17662832
48	0x3dee4e6a	0.1163605
49	0x3ccaf5ef	0.024775473
50	0xbe1f47c4	-0.1555472
51	0x3dd46340	0.10370493
52	0xbd1f0085	-0.038818855
53	0x3d20aa39	0.039224837
54	0x3e58ef27	0.2118498
55	0xbe0d9e57	-0.13829933
56	0xbd6d459f	-0.057927724
57	0xbd0e8697	-0.034796324
58	0xbc289f61	-0.010291905
59	0x3d9f4456	0.07776706
60	0x3d2e58b5	0.042565066
61	0xbd433a9a	-0.04766331
62	0xbe14b0dd	-0.14520593
63	0xbe1c451a	-0.15260735
64	0xbc61a122	-0.013771327
65	0xbe258849	-0.1616527
66	0xbcb9f05b	-0.022697618
67	0xbe21684e	-0.15762445
68	0xbe37eb2a	-0.17960802
69	0x3c964cd6	0.018347185
70	0x3f1f6409	0.62262017
71	0x3da8cd9a	0.082423404
72	0xbdeb1e72	-0.11480416
73	0x3eb172b8	0.34657836
74	0x3c6cc768	0.014451839
75	0x3e802191	0.2502561
76	0x3d9723f7	0.073799066
77	0xbd03b6ea	-0.032156862
78	0x3ddc9a23	0.10771587
79	0xbc00b17a	-0.007854814
80	0xbc991f68	-0.018691733
81	0xbdfdb612	-0.12388243
82	0xbdcfacb9	-0.10140366
83	0x3e237b34	0.15964967
84	0xbd8e02d1	-0.06934131
85	0x3e305213	0.17218809
86	0x3bd01e92	0.0063513005
87	0xbc4d7254	-0.012539465
88	0x3e9c8def	0.30577037
89	0x3b035904	0.002004207
90	0xbcdb01e5	-0.026734302
91	0x3b5ba76a	0.0033516535
92	0xbce5bd21	-0.028044285
93	0x3e08400f	0.13305686
94	0x3da1ed48	0.07906586
95	0x3e9a7660	0.30168438
96	0x3c7afad9	0.015318596
97	0xbc2f9518	-0.010716699
98	0xbe26410c	-0.16235751
99	0xbcf99211	-0.030465158
100	0xbc446d3a	-0.011988932
101	0xbd88f0e5	-0.06686572
102	0xbda65348	-0.081213534
103	0x3d4df933	0.050286483
104	0xbdf4b744	-0.11949018
105	0xbd2829f3	-0.04105563
106	0x3db9f0e9	0.09079153
107	0xbd7a4ddd	-0.061109412
108	0xbc8711cb	-0.016487977
109	0x3cab3664	0.020899959
110	0xbe50597c	-0.20346636
111	0xbd82897b	-0.063738786
112	0xbda1165e	-0.07865594
113	0x3de38d39	0.111109205
114	0x3c2f6331	0.010704801
115	0x3e3f5223	0.18683676
116	0xbd815524	-0.063150674
117	0x3d8805ed	0.06641755
118	0xbe55e1e8	-0.20886958
119	0xbcd79e27	-0.02632053
120	0x3daa5115	0.083162464
121	0x3bfd5ea8	0.007732231
122	0xbe820c99	-0.25400236
123	0xbefb84bc	-0.49124706
124	0xbb916177	-0.0044366675
125	0xbdd66ec9	-0.10470349
126	0xbc990415	-0.018678704
127	0x3d7de913	0.061989855
128	0x3d984b46	0.07436232
129	0x3bcacd33	0.0061890124
130	0xbf202b66	-0.6256622
131	0xbcb84b80	-0.022496939
132	0xbd1da7b5	-0.038490016
133	0x3d0d842d	0.03454988
134	0xbc2991e4	-0.010349724
135	0x3db5ae26	0.08871107
136	0xbc9710c9	-0.018440621
137	0x3b0b8468	0.0021288637
138	0xbca7170e	-0.020396736
139	0xbd030eae	-0.03199642
140	0x3d4f825d	0.050661433
141	0x3dfcf215	0.12350861
142	0xbd2ff1fc	-0.042955384
143	0x3df9f786	0.122054145
144	0x3e13dcb6	0.14439663
145	0x3d849963	0.06474569
146	0x3e02c74e	0.12771341
147	0xbd671bcf	-0.056423005
148	0x3d57ccff	0.052685734
149	0x3d6a6c4a	0.05723218
150	0x3da1ed98	0.079066455
151	0xbda96e0d	-0.08272944
152	0xbd4dd473	-0.050251435
153	0x3e16925e	0.14704272
154	0xbe0da79b	-0.13833468
155	0xbdc9ca72	-0.098530665
156	0xbe6d0f87	-0.23150454
157	0xbcfbb32e	-0.030725088
158	0x3d6771d0	0.056505024
159	0xbdd2ff15	-0.10302559
160	0xbbd5e265	-0.0065272325
161	0xbe900874	-0.2813145
162	0xbd1f8461	-0.038944606
163	0x3d18918d	0.037248183
164	0xbe72db6f	-0.2371652
165	0xbc680b31	-0.0141628245
166	0xbdf3f7bd	-0.11912487
167	0x39e9e303	0.0004461036
168	0x3e0dc5b0	0.13844943
169	0xbd7453bc	-0.059650168
170	0xbdc49037	-0.09597819
171	0x3cb670ae	0.022270527
172	0x3dfcf6b2	0.12351741
173	0x3d99ad0d	0.0750371
174	0xbc297812	-0.010343568
175	0xbdd8578b	-0.105635725
176	0xbb057cde	-0.0020368616
177	0x3dab0859	0.083512016
178	0x3d833c64	0.06408003
179	0x3a6aa527	0.0008951001
180	0x3dd96c33	0.106163405
181	0x3e552727	0.20815717
182	0x3d0851fa	0.033281304
183	0xbc89e8f0	-0.016834706
184	0x3e51972a	0.20467821
185	0x3c1c160c	0.009526741
186	0x3e59495b	0.21219389
187	0xbbc68c1a	-0.006059182
188	0x3e13ade6	0.14421806
189	0x3dfd9f67	0.12383919
190	0x3ebbee70	0.3670535
191	0xbcf596e3	-0.029979175
192	0x3cadf5bb	0.021235337
193	0xbbb93273	-0.005651766
194	0xbce8e44e	-0.028429177
195	0x3e8868ef	0.26642558
196	0xbd24fadf	-0.04027831
197	0x3c858bf8	0.016302094
198	0x3d3eaf4b	0.04655389
199	0xbd01275c	-0.031531677
200	0x3d82d7a4	0.063887864
201	0xbd9ae0aa	-0.075623825
202	0x3d22cdb7	0.039746966
203	0x3d8daa80	0.06917286
204	0xbd3f38e6	-0.046685122
205	0xbe73a22d	-0.23792334
206	0xbdccb235	-0.09994928
207	0xbdedd3e1	-0.11612678
208	0xbdad7351	-0.084692605
209	0xbd87ebbc	-0.0663676
210	0xbe8f99ed	-0.28047124
211	0x3d3de17f	0.046357628
212	0xbdd4710b	-0.10373124
213	0x3e874c1c	0.26425254
214	0xbbbe73e5	-0.0058121555
215	0xbedeac6d	-0.43490925
216	0x3de11833	0.10990944
217	0xbcca4e31	-0.024695488
218	0x3d1ef42b	0.038807075
219	0x3cc21af1	0.023694487
220	0x3d53919d	0.05165254
221	0xbd9dd86d	-0.077072956
222	0x3d980f0c	0.07424745
223	0xbd538811	-0.051643435
224	0xbde5e187	-0.112246566
225	0xbda8c731	-0.08241118
226	0xbe33f346	-0.1757327
227	0x3bc826f0	0.0061081573
228	0x3d349a6e	0.044092588
229	0xbd9b4f32	-0.07583465
230	0xbe81864d	-0.25297776
231	0xbcdd1d8a	-0.026991624
232	0xbda8a82b	-0.082352005
233	0xbdaa160e	-0.08304988
234	0xbc1997ed	-0.009374601
235	0x3e0d6bd0	0.13810658
236	0x3da7f726	0.08201437
237	0xbe2aa3c1	-0.1666403
238	0xbd306173	-0.043061685
239	0x3d8dff6f	0.06933486
240	0xbdd29346	-0.102819964
241	0x3d828d86	0.0637465
242	0x3db1c2bd	0.086797215
243	0xbdf40746	-0.1191545
244	0x3e39138b	0.18073861
245	0x3d5ae1b3	0.0534379
246	0x3e8ae7cc	0.27129972
247	0xbcd6683a	-0.026172746
248	0xbdcc3407	-0.09970861
249	0x3e56d3fe	0.20979306
250	0xbd4b9672	-0.049704023
251	0xbd108360	-0.03528154
252	0x3de19598	0.11014861
253	0x3e13d945	0.1443835
254	0x3b77233b	0.0037710208
255	0x3d872daa	0.066005066

0.bias f4 [64]
0	0xbe202ffb	-0.15643303
1	0xbe80e230	-0.25172567
2	0x3d55d92d	0.052209068
3	0x3e3a0fec	0.18170136
4	0x3d84c48f	0.06482803
5	0x3eec6f58	0.461787
6	0xbe0a558e	-0.13509199
7	0x3e338867	0.17532502
8	0xbd2286da	-0.039679386
9	0xbe5f2109	-0.21789946
10	0x3e8de218	0.27711558
11	0xbf09763d	-0.5369604
12	0xbd39a984	-0.04532768
13	0xbeeb3ab2	-0.45943218
14	0xbd77250e	-0.060338072
15	0x3eed8a28	0.46394467
16	0x3d95e802	0.073196426
17	0xbd5baabe	-0.05362963
18	0x3d8a411f	0.06750702
19	0xbe88c6bf	-0.2671413
20	0xbe081ede	-0.13293025
21	0x3f873296	1.0562313
22	0x3d8ae3ea	0.067817524
23	0xbe6d1bfd	-0.23155208
24	0xbe55ac4f	-0.20866512
25	0x3d2b2509	0.041783366
26	0xbe2a948f	-0.16658233
27	0xbe3bcc4b	-0.1833965
28	0x3dc8e863	0.09809949
29	0x3d545306	0.05183699
30	0x3e7245ed	0.23659487
31	0x3d4dd7d7	0.05025467
32	0xbde9e7b6	-0.114211485
33	0xbe3e0970	-0.18558288
34	0xbe995c35	-0.2995316
35	0xbe307f7c	-0.17236131
36	0x3e7650d6	0.24054274
37	0xbdcf2b72	-0.101157084
38	0xbe12c288	-0.1433202
39	0x3ebeecf2	0.3729015
40	0xbdc90bd6	-0.09816711
41	0x3efe4b95	0.4966704
42	0xbd850c28	-0.06496459
43	0xbd2c5f1a	-0.042082883
44	0x3d677d95	0.05651625
45	0x3e834338	0.2563722
46	0x3de7679a	0.11299057
47	0x3efe385b	0.4965237
48	0xbe11e33d	-0.14246841
49	0xbc207c6d	-0.00979529
50	0x3e87c210	0.26515245
51	0xbe41f594	-0.18941337
52	0xbe988c68	-0.2979462
53	0xbdfc9316	-0.12332742
54	0xbd861c7d	-0.065484025
55	0xbd87f1ba	-0.066379026
56	0xbd5000c8	-0.050781995
57	0xbec6ac4f	-0.38803336
58	0xbe31dc10	-0.17369103
59	0xbc654530	-0.013993546
60	0x3d42729c	0.04747258
61	0xbd6066d3	-0.05478556
62	0x3f753727	0.9578728
63	0xbe2393e8	-0.1597439

2.weight f4 [64, 64]
0	0x3bc99fda	0.006153089
1	0xbd0d28c5	-0.03446271
2	0x3cf60ad6	0.030034464
3	0xbd3fe2b8	-0.046847075
4	0x3d4ced5d	0.050031055
5	0x3dcf8c7e	0.10134219
6	0xbd0887b8	-0.033332556
7	0x3da5ede1	0.081020124
8	0x3de5e050	0.11224425
9	0xbcd0fae5	-0.02551026
10	0x3d2c4c3a	0.042064883
11	0xbdbb5ffa	-0.091491655
12	0xbb2eb2da	-0.0026656897
13	0xbd5c4055	-0.05377229
14	0xbc84aa14	-0.01619438
15	0x3d3f9a55	0.046778042
16	0x3d70c76e	0.05878394
17	0xbc66d341	-0.014088453
18	0x3cfcac39	0.03084384
19	0x3c822fe4	0.015891977
20	0x3b4ee20d	0.0031567842
21	0x3e1bf82c	0.15231389
22	0x3c8eb960	0.017422378
23	0xbd2a7db4	-0.041623786
24	0xbd191a61	-0.037378673
25	0x3df07c07	0.11742406
26	0x3d63ce87	0.05561688
27	0x3d5dbbb1	0.054134075
28	0xbd70190c	-0.058617637
29	0x3d57b1e0	0.05265987
30	0x3d1be3ef	0.03805917
31	0x3d705b4b	0.058680814
32	0xbbba9a21	-0.005694643
33	0xbb7c93b1	-0.003854018
34	0xbd0e705f	-0.034775134
35	0x3ccf9fd7	0.025344772
36	0xbc1e568f	-0.009664192
37	0x3d50049c	0.050785646
38	0x3c42a203	0.011879447
39	0x3d5b9590	0.05360943
40	0xbc849871	-0.016185971
41	0x3df1b032	0.11801185
42	0xbd88e225	-0.06683759
43	0xbd7884a5	-0.060673375
44	0xbcd7ba61	-0.02633399
45	0x3d3f44a1	0.04669631
46	0xbd818319	-0.06323833
47	0x3d930ca6	0.07180147
48	0xbd851ec2	-0.06500007
49	0xbc558d78	-0.013034217
50	0x3d03578e	0.03206592
51	0xbc1993c1	-0.009373606
52	0xbca34484	-0.019930132
53	0xbd6777fb	-0.056510907
54	0xbd71f6aa	-0.059073128
55	0xbcc12ef8	-0.023581967
56	0xbdbe604f	-0.09295713
57	0xbcea289d	-0.028583819
58	0xbcd57436	-0.02605639
59	0xbceec12d	-0.029144848
60	0xbd41abad	-0.047282863
61	0x3d50a328	0.050936848
62	0x3dbf9679	0.09354872
63	0x3d541c8a	0.05178503
64	0xbd387515	-0.045033533
65	0x3ddbf791	0.10740579
66	0x3da475d5	0.08030287
67	0xbd5281e2	-0.051393397
68	0x3e0b735b	0.13618223
69	0x3e23a376	0.15980324
70	0xbc99a2d9	-0.01875441
71	0xbe10b1f8	-0.1413039
72	0x3db5f212	0.08884062
73	0xbd078273	-0.03308339
74	0xbbdfda70	-0.0068314597
75	0xbb290870	-0.0025792383
76	0x3e17fc65	0.14842375
77	0x3d885bf3	0.06658163
78	0xbcebb998	-0.028775021
79	0x3d969c01	0.07353974
80	0x3da7953b	0.0818276
81	0xbccbdce4	-0.024885602
82	0x3dffe93b	0.12495657
83	0xbd4697a1	-0.04848445
84	0x3c36c394	0.011155028
85	0x3e351e33	0.17687301
86	0xbc801171	-0.015633317
87	0xbd49bbb7	-0.049251284
88	0x3b19bd98	0.0023458954
89	0x3dd65a5b	0.10466453
90	0x3d943128	0.07235938
91	0x3cc4f665	0.024043271
92	0x3d3054ce	0.043049626
93	0x3c9ac56a	0.018892962
94	0x3ca6430c	0.020295642
95	0x3d47da4b	0.048792165
96	0x3e624e2e	0.22100136
97	0xbc7932c4	-0.015209857
98	0xbe01ad07	-0.12663661
99	0x3c886909	0.016651647
100	0xbe33b25a	-0.17548504
101	0x3dfee9f5	0.124469675
102	0x3c9e626f	0.019334046
103	0x3d3e8a22	0.046518452
104	0xbc6fe86a	-0.014642814
105	0x3e422d20	0.18962526
106	0xbd58c48b	-0.052921813
107	0xbddff148	-0.109346926
108	0x3d8b5e6f	0.06805121
109	0x3d5d5536	0.05403634
110	0xbd328763	-0.043586146
111	0x3db61065	0.08889846
112	0xbd93b716	-0.07212655
113	0xbd28a3a0	-0.04117167
114	0x3d316e51	0.043318097
115	0xbc8edec8	-0.017440215
116	0x3db41b13	0.087942265
117	0xbdf0af94	-0.11752239
118	0xbc9de897	-0.019275947
119	0xbd5aebb0	-0.053447425
120	0xbc9a20c7	-0.018814458
121	0xbd161c8a	-0.03664831
122	0xbd6bc17e	-0.057557575
123	0x3c0d09d2	0.008608298
124	0xbdacb7bc	-0.08433482
125	0x3dcbb388	0.09946352
126	0x3e61eb73	0.22062473
127	0x3ddb1210	0.106968045
128	0xbc2f6810	-0.010705963
129	0xbcb24b4c	-0.02176442
130	0x3a853463	0.0010162707
131	0x3c808cca	0.015692133
132	0x3b76b1bb	0.0037642557
133	0xbc21097c	-0.009828921
134	0xbadc988e	-0.0016830133
135	0xbc3bf1eb	-0.011471252
136	0xbc0e66d3	-0.008691507
137	0xbbfede92	-0.0077779973
138	0xbaf07df1	-0.001834808
139	0x3b951b24	0.0045503546
140	0x3ca26eae	0.019828167
141	0xbbf427e3	-0.007451044
142	0xbc7b20af	-0.015327617
143	0x3cad0f8d	0.02112558
144	0x3bd5cfe9	0.006525029
145	0xbb8ed483	-0.0043588295
146	0x3bf29e52	0.007404127
147	0x3c16aa42	0.009195866
148	0x3c866d1d	0.016409451
149	0xbc9ad64a	-0.01890101
150	0x3c8294f3	0.015940165
151	0xbc0bef15	-0.008540888
152	0xbc36c57b	-0.011155481
153	0xbb9167d1	-0.0044374247
154	0x3bfdd903	0.007746817
155	0x3cb63184	0.022240408
156	0xbbbce7ae	-0.005764923
157	0xbba1dbb1	-0.0049395193
158	0x3bc65e3c	0.006053714
159	0xbbd57db2	-0.006515228
160	0x3bf92948	0.007603798
161	0xbb3f6bf0	-0.0029208623
162	0xbb1104c3	-0.0022128082
163	0xbb9f9fca	-0.0048713433
164	0x3a3c73be	0.0007188878
165	0x3cba3aae	0.022733059
166	0x3cb2e76a	0.021838862
167	0x3b02a746	0.0019936129
168	0x3b07091e	0.00206048
169	0xbc278da2	-0.010226639
170	0x3ce26690	0.027636796
171	0x3cf85356	0.030313175
172	0x3d4f3f0b	0.05059723
173	0xbbd1c478	-0.0064015947
174	0x3c765264	0.015034292
175	0x3b355e81	0.0027674737
176	0x3bce6f2f	0.006299875
177	0xbc300ba8	-0.010744967
178	0x3c19943b	0.00937372
179	0xb9cea06d	-0.00039410908
180	0xbcc4bcc7	-0.024015797
181	0xba2a87b0	-0.00065052044
182	0x3ba318f6	0.004977341
183	0x3c91d43f	0.017801402
184	0xbc0cd641	-0.008596004
185	0xbc65d971	-0.014028893
186	0x3bcb5653	0.006205359
187	0x3c8387c9	0.016055958
188	0x3c3348d7	0.010942659
189	0x3cd60e42	0.026129846
190	0x3c40b441	0.011761726
191	0x3b59839b	0.0033190015
192	0x3b9a34d8	0.0047060065
193	0x3bfea0f7	0.0077706533
194	0x3b9cbfcd	0.0047836066
195	0x3ca903ad	0.020631636
196	0x3ce9b29e	0.028527554
197	0x3c6d3fe8	0.0144805685
198	0xbc16729d	-0.009182599
199	0xbd42ad6b	-0.047528666
200	0xbd13692f	-0.035988983
201	0xbc63c49a	-0.013901854
202	0xbcbd6722	-0.023120467
203	0xbb916661	-0.0044372533
204	0x3c981dfa	0.018568981
205	0xbb9fa157	-0.004871528
206	0xbb89485c	-0.004189534
207	0x3c607e15	0.013701935
208	0x3be3294c	0.006932413
209	0xbb95a7cd	-0.0045671226
210	0xbcbaeae0	-0.022817075
211	0xbc9417c3	-0.018077737
212	0x95c77237	-8.055566e-26
213	0x3c84f8ca	0.016231913
214	0xba867582	-0.0010258409
215	0xbd14a97b	-0.03629444
216	0xbc2e9d8d	-0.01065768
217	0xbccc0a57	-0.024907274
218	0xbbe3c506	-0.0069509773
219	0xbd093112	-0.033494063
220	0x3ca3f21d	0.02001291
221	0xb3cf26d5	-9.646252e-08
222	0xbc67696c	-0.014124256
223	0xbcf26c62	-0.029592697
224	0xbce03c0b	-0.02737238
225	0xbd3bdcaa	-0.04586474
226	0xbd392c77	-0.04520842
227	0x3b8893af	0.004167996
228	0x3b95c3e2	0.00457047
229	0x823ddffb	-1.3949806e-37
230	0x3c520bc8	0.012820192
231	0x3d2af335	0.041735847
232	0xbcb00ecb	-0.021491429
233	0x3ce94dea	0.028479535
234	0x3ce1620f	0.027512578
235	0x3c848e25	0.016181061
236	0x3c469269	0.012119868
237	0xbc792b1a	-0.01520803
238	0x3cb7cdb8	0.022436962
239	0xbc9685bf	-0.018374322
240	0xbb6f6728	-0.0036529992
241	0xbcd61f3f	-0.026137946
242	0x3c5e4fbe	0.013568817
243	0x3b7b2dde	0.00383269
244	0x3be2ec86	0.0069251684
245	0xbd150c03	-0.03638841
246	0xbbe90f2b	-0.007112404
247	0xbbbc93d3	-0.0057549267
248	0xbd02617c	-0.03183125
249	0xbc8db79a	-0.017299462
250	0xbd035557	-0.03206381
251	0xbc216bf4	-0.009852398
252	0xbcf8e0fb	-0.030380717
253	0x3ca87638	0.020564184
254	0x3d359c86	0.044338726
255	0x392fe7b6	0.0001677562

2.bias f4 [64]
0	0x3e839c94	0.25705397
1	0x3e96982f	0.29412982
2	0xbc8a6f25	-0.016898701
3	0x3c872f46	0.016502034
4	0xb21231ac	-8.509613e-09
5	0x823ddff5	-1.39498e-37
6	0xbc569f78	-0.013099544
7	0xbdaa7575	-0.083231844
8	0x3e457c52	0.19285706
9	0x92d9a623	-1.3735581e-27
10	0x3e9c3ebd	0.30516616
11	0xbe01296c	-0.12613457
12	0xbe051c82	-0.12999156
13	0x3e07b5c6	0.13252935
14	0x3e4ef066	0.20208892
15	0x823de01b	-1.3949842e-37
16	0xbca617e2	-0.02027506
17	0x3d9e8f31	0.07742155
18	0xbdcab2f3	-0.09897413
19	0x3d1acbf0	0.037792146
20	0xbd1aa2a4	-0.037752762
21	0x81fd329c	-9.3010143e-38
22	0x3e96eea5	0.29478946
23	0x3e594703	0.21218495
24	0x3e5b3c13	0.21409635
25	0xbd79402f	-0.060852226
26	0x3ddb4eb8	0.10708374
27	0x3e9998c0	0.29999352
28	0xbdda13f6	-0.106483385
29	0x0147f4f4	3.6726273e-38
30	0xbd39ebed	-0.045391012
31	0xbdc4b24a	-0.096043184
32	0xbdaef7fc	-0.08543393
33	0x3d832478	0.0640344
34	0x3e8381b1	0.25684884
35	0xbd8d873f	-0.06910562
36	0xbdc57fce	-0.096435174
37	0x823de015	-1.3949835e-37
38	0x81f3c6d3	-8.95494e-38
39	0x3cc224a8	0.02369912
40	0x3eb0b7ac	0.3451513
41	0x3e221cf6	0.1583136
42	0x3e7849df	0.2424693
43	0xbdedd5e0	-0.11613059
44	0x9ea5d0d9	-1.7556432e-20
45	0x3ed0c975	0.407787
46	0x3e6655bf	0.22493647
47	0x82001e94	-9.41273e-38
48	0xbc9e4500	-0.019320011
49	0x3e70cad2	0.2351487
50	0x3ebae874	0.36505473
51	0x3e8c69d0	0.2742448
52	0x3e8ca0c1	0.27466395
53	0xbe025634	-0.12728196
54	0xbdc688be	-0.0969405
55	0x3e74f8a7	0.23922978
56	0x3e8cc5e0	0.27494717
57	0xbd6dfffc	-0.058105454
58	0x3e50e1ff	0.2039871
59	0xba33e513	-0.0006862443
60	0xbd1fa714	-0.038977697
61	0x3dec8412	0.11548628
62	0x3e765a1f	0.24057816
63	0x3e6611cd	0.22467728

4.weight f4 [8, 64]
0	0x3e56b696	0.20968089
1	0x3d14adc9	0.036298547
2	0xbcba2875	-0.02272437
3	0x3d10c916	0.03534802
4	0x38d32925	0.00010068928
5	0x1c67d0b5	7.6701236e-22
6	0x3cba30a7	0.022728277
7	0xbe4458c6	-0.1917449
8	0x3e880196	0.2656371
9	0x92b77e63	-1.158008e-27
10	0x3e81c0cf	0.25342414
11	0xbd8c9bba	-0.0686564
12	0xbce6c1a7	-0.028168513
13	0x3e39f8a7	0.1816126
14	0x3e36f32e	0.17866203
15	0x9d348e1e	-2.3896275e-21
16	0xbd42c87f	-0.04755449
17	0x3e224304	0.15845877
18	0xbd118922	-0.03553117
19	0x3cddcf13	0.02707628
20	0xbbe78250	-0.007065095
21	0x01ebb491	8.6584466e-38
22	0x3ea0cca6	0.31406134
23	0x3de070df	0.109590285
24	0x3e804d84	0.2505914
25	0xbd430d76	-0.04762026
26	0x3ea1df0d	0.31615487
27	0x3eabe691	0.33574346
28	0xbed54b3f	-0.4165897
29	0x02048737	9.736633e-38
30	0xbdbe51f6	-0.092929766
31	0xbdba3132	-0.090914145
32	0xbe6ff760	-0.2343421
33	0x3e0b7f39	0.1362275
34	0x3e6a0464	0.22853237
35	0xbe71dbd3	-0.23619013
36	0xbe44e8c3	-0.19229417
37	0x023ddfec	1.394979e-37
38	0x82075f60	-9.945605e-38
39	0xbe888f3f	-0.26671788
40	0x3ec15358	0.377589
41	0x3e0ee68a	0.13955131
42	0x3ea6f65a	0.32609826
43	0xbd692afd	-0.056925762
44	0xb70ad24b	-8.274404e-06
45	0x3ea97e4b	0.33104166
46	0x3e852a84	0.26009
47	0x8208ac98	-1.0041234e-37
48	0xbcd9de71	-0.026595326
49	0x3e82322b	0.254289
50	0x3d1f5eb4	0.038908675
51	0xbde4c41f	-0.1117022
52	0x3e512b6a	0.20426717
53	0xbd3d2f24	-0.046187535
54	0xbe144ed2	-0.14483193
55	0x3e7e6f1a	0.2484707
56	0x3e9bd595	0.30436388
57	0xbe0ff3a2	-0.14057782
58	0x3eaca774	0.33721507
59	0xba83cef0	-0.0010056179
60	0x3d892d41	0.066980846
61	0xbd3bff3a	-0.0458977
62	0xbe14c697	-0.14528881
63	0x3e86577f	0.2623863
64	0xbcbc9ccb	-0.023023983
65	0xbda1f4f3	-0.079080485
66	0x3d114fcb	0.035476487
67	0x3a4933c4	0.0007675255
68	0xaa9d617b	-2.7956443e-13
69	0x023de051	1.3949903e-37
70	0x3e89d44c	0.26919782
71	0x3d321117	0.04347333
72	0x3d77060c	0.0603085
73	0x9314ce65	-1.8781987e-27
74	0x3de5f18b	0.11227711
75	0xbcb2ac72	-0.021810744
76	0xbe52a954	-0.20572406
77	0xbd00547d	-0.031330574
78	0x3e010d87	0.12602817
79	0x023de000	1.3949812e-37
80	0x3e8e9f97	0.27856132
81	0x3e38de7d	0.18053623
82	0xbb25bc24	-0.0025289143
83	0xbea14fe1	-0.31506255
84	0x3cc8de78	0.024520144
85	0x8206149d	-9.850681e-38
86	0x3dd97d35	0.106195845
87	0x3e4991ff	0.196846
88	0x3e56472a	0.20925584
89	0x3d40e338	0.047091693
90	0x3e9ee886	0.31036776
91	0x3d62fe35	0.055418212
92	0x3d80b86e	0.06285177
93	0x0205f522	9.841646e-38
94	0x3cdd1a9d	0.02699023
95	0xbe517c7c	-0.20457643
96	0x3c7c902b	0.015415232
97	0x3d8a0c0a	0.067405775
98	0x3e30fbd9	0.17283572
99	0xbb13f0af	-0.0022573879
100	0xbc85383f	-0.016262172
101	0x823ddfd4	-1.3949763e-37
102	0x00c1a5f9	1.778379e-38
103	0xbee8a8e1	-0.45441344
104	0xbe486e9d	-0.19573446
105	0x3e805480	0.25064468
106	0xbc3112de	-0.010807721
107	0xbe8c4a97	-0.27400658
108	0x35c7f559	1.4898061e-06
109	0xbe0e9392	-0.13923481
110	0x3e96dbed	0.29464665
111	0x0172ae7c	4.4573567e-38
112	0xbdd56a26	-0.10420637
113	0x3e37577e	0.1790447
114	0xbed3f294	-0.4139601
115	0xbef3b9e9	-0.47602776
116	0xbb5a378e	-0.0033297273
117	0xbe9c4937	-0.30524608
118	0x3e1a71cf	0.15082477
119	0xbd8e10cb	-0.06936797
120	0xbe278b35	-0.16361697
121	0xbe360eb5	-0.17779048
122	0x3ef74275	0.4829289
123	0x3a47fd04	0.000762895
124	0x3d7b719f	0.061387654
125	0xbe48b839	-0.19601525
126	0xbded3db9	-0.11584038
127	0xbdbdfdf7	-0.092769556
128	0x3dfef0c5	0.12448267
129	0xbe197f6f	-0.14990018
130	0xbd85460f	-0.06507503
131	0xbd5d207b	-0.053986054
132	0x33773b8d	5.756333e-08
133	0x8407f46f	-1.5981412e-36
134	0xbe970dbc	-0.29502666
135	0xbbb4da79	-0.005519208
136	0x3c98b155	0.018639246
137	0x91cd045d	-3.2345986e-28
138	0xbe2781fc	-0.16358179
139	0x3d0d410f	0.034485873
140	0x3e6f63c3	0.233779
141	0x3d5440a8	0.051819474
142	0x3c19b1b3	0.009380746
143	0x823ddfdd	-1.3949773e-37
144	0xbeb97bf3	-0.36227378
145	0xbe2e84c7	-0.17042838
146	0xbc0cfc95	-0.008605142
147	0x3e9d4d1a	0.30722886
148	0x3c5d1914	0.013494749
149	0x01fd337e	9.301141e-38
150	0xbd7813e8	-0.06056586
151	0xbeba58e3	-0.3639594
152	0xbde3a803	-0.1111603
153	0xbd8d0d68	-0.06887323
154	0x3e0d6eb6	0.13811764
155	0x3e564a3e	0.20926759
156	0xbde35c47	-0.11101585
157	0x812513a4	-3.0319805e-38
158	0xbb2da7dc	-0.0026497757
159	0x3e91821b	0.28419575
160	0xbc817b03	-0.015805727
161	0xbd4614a1	-0.048359517
162	0xbdf7c49f	-0.12098049
163	0xbb8082a6	-0.0039218245
164	0x3ce5badd	0.028043205
165	0x023de052	1.3949904e-37
166	0x8173cef2	-4.4780527e-38
167	0x3dbb8a30	0.091572165
168	0x3e982991	0.29719213
169	0xbe55288a	-0.20816246
170	0x3e4acbca	0.19804302
171	0x3e95c80b	0.29254183
172	0xae8cb71d	-6.3989904e-11
173	0x3e09da4c	0.1346218
174	0xbcd97405	-0.02654458
175	0x01f362fc	8.940614e-38
176	0x3d5fbf6f	0.054625925
177	0xbdb6135f	-0.088904135
178	0x3da633aa	0.08115323
179	0x3d849888	0.064744055
180	0xbe35845e	-0.17726275
181	0x3ea4e53f	0.3220615
182	0xbe48cafd	-0.19608684
183	0x3dd69707	0.10478025
184	0x3ddfd02c	0.109283775
185	0x3d6bd102	0.057572372
186	0xbd9bc1f0	-0.0760535
187	0xba42b0bb	-0.00074268476
188	0x3ca3c074	0.01998923
189	0x3d23d9ae	0.040002517
190	0xbe9fee18	-0.3123634
191	0x3d92f527	0.07175665
192	0x3e217c4c	0.15770072
193	0x3e722a60	0.23648977
194	0x3b5e024f	0.0033875888
195	0x3db0d595	0.086344875
196	0x386d4878	5.6572695e-05
197	0x187fc716	3.305849e-24
198	0x3d4cd389	0.050006423
199	0xbe6cc4c3	-0.23121934
200	0x3e2f29ae	0.17105743
201	0x12610eb9	7.101563e-28
202	0x3e8fe8aa	0.28107196
203	0xbdad61a2	-0.084658876
204	0xbd570dc9	-0.05250338
205	0x3e166480	0.14686775
206	0x3dd9a7da	0.10627718
207	0x1dc2cb3b	5.1561508e-21
208	0x3d02dbdd	0.03194796
209	0x3e1ccf3e	0.15313432
210	0xbc682a9f	-0.014170318
211	0x3ce9fc21	0.028562607
212	0xbd1ba0ea	-0.037995256
213	0x81e629da	-8.454871e-38
214	0x3e873acc	0.26412046
215	0x3e9722fa	0.29518872
216	0x3d80ff17	0.062986545
217	0xbc5f0d00	-0.013613939
218	0xbe2d2003	-0.16906743
219	0x3e0afc86	0.13572893
220	0xbebb54c7	-0.36588117
221	0x01eaafa8	8.621008e-38
222	0xbe051bdb	-0.12998907
223	0xbe3034e8	-0.17207682
224	0xbe6dc380	-0.23219109
225	0x3db99a8e	0.09062682
226	0x3e4837c9	0.1955253
227	0xbe61f1a5	-0.22064836
228	0xbe520a9b	-0.20511858
229	0x823de030	-1.3949866e-37
230	0x81c1a3d6	-7.1132096e-38
231	0x3dbb8c0c	0.09157571
232	0x3e8b0e36	0.2715928
233	0x3daeba81	0.085316665
234	0x3da82195	0.0820953
235	0xbd9ace7b	-0.07558914
236	0xb93f61be	-0.00018251591
237	0x3eb51722	0.3536921
238	0x3dc41910	0.09575093
239	0x82064e37	-9.867212e-38
240	0x3ce703f2	0.028200123
241	0x3e338a84	0.17533308
242	0x3ec39dcf	0.38206336
243	0x3e953d31	0.29148248
244	0x3e990d4c	0.29892957
245	0xbd7f33b5	-0.06230517
246	0xbdc3e83b	-0.09565779
247	0x3e3dfe30	0.18553996
248	0x3ebc0557	0.36722824
249	0xbc389114	-0.011265058
250	0xbd5a9d67	-0.053372767
251	0xbab95ec7	-0.0014142626
252	0xbd06031d	-0.032717813
253	0x3e0d1ca2	0.13780454
254	0x3eb3ddbd	0.3513011
255	0x3e94cf6b	0.29064497

4.bias f4 [8]
0	0x3eb3f40e	0.35147136
1	0xbdbe78ef	-0.0930041
2	0x3d01fac5	0.031733293
3	0x3ebb47c8	0.36578202
4	0x3da2ba48	0.079456866
5	0x3d8411b9	0.06448693
6	0xbdd82d0f	-0.10555469
7	0x3de9cdb7	0.1141619
